general_complex.pth (torch, 211899 bytes, 14 tensors)

weight f4 [100, 5]
00000000: 5fa4 c0be b5bb 133f da3a bd3c b847 223e
00000010: bc5c 483e af16 a5be e179 8e3c c9bc 8b3f
00000020: d5b4 a4bd bed1 4f3e 4984 d53d 07ed a4be
00000030: 3e06 ca3d 4cc8 aebe 3d81 2b3e f95c f9be
00000040: b3f5 e9be 5b4d 31be 9fa8 1f3d 113c 9a3d
00000050: e2db 6c3f 49d9 21be 568c 16bd 5250 17bf
00000060: 630c 1b3e 801b d8be 83d4 183f 756c d43e
00000070: 39b8 023e a849 433d ac1e 46bf e7d9 5abf
00000080: 032b 463d e061 493f 462d 363e c6af dbbe
00000090: fc75 e43e d84b 98bd d147 753d 92fa 3b3e
000000a0: bca4 87be ff4b 3ebf 5d38 08bd b69b b73e
000000b0: 704f 9b3e 996b 5ebf a787 2fbf bdcb 513c
000000c0: 6ecb e83e 35fa 6b3e 3f17 21bf 7865 943e
000000d0: 5b66 d8be 8ec2 843e 2aab d93d 7cbc 48bf
000000e0: 6435 1cbf 96d9 ffbc f444 f73e b661 483e
000000f0: 9697 0e3e 9da3 e83e 914e d5bd 8ac0 183f
00000100: 272e 7e3d 4665 89be edf6 5d3f 3140 c93e
00000110: 6b1e 29bf ed90 093e dae3 c4be 121f 913e
00000120: 9ae7 86be ff3d b43e 27f2 313e 5c8c 833c
00000130: 2e71 cf3e 81b2 453d 8b64 023f 0e74 b93d
00000140: 520e 553d 999b 1b3f 6a03 b73e e6e9 0c3f
00000150: 63b1 643e 615f e2be 22da 1f3f 40e5 bf3e
00000160: 368a 91bd 4973 edbb 051c b6be 68d6 30bf
00000170: 187a b4bd f90e 213c 1e6d 8a3e b159 053f
00000180: 55c2 7dbd b31e 413e 820d 2abf c358 913e
00000190: bc69 003f 0ea4 5c3e 8235 5b3e 93fb 433f
000001a0: 9ee6 a93d 2d10 4ebf 6a6b 763f 09e7 a53e
000001b0: bd94 30bf d2a4 c03e 7833 983c 2ca0 7c3e
000001c0: 788b 9abd ffa5 d03e 5a95 093e 9abf 2dbf
000001d0: cd2d 2dbf e780 733c e82b bc3e 37aa 803e
000001e0: e965 e2be 8e34 f6be c76e fbbd 218d 373c
000001f0: 7281 dd3d 9bf3 ddbe f409 fabe ad1d c83e
00000200: d4c8 733e b5d0 fb3d f008 52bd b13e ee3e
00000210: ebb3 a03e fbc0 7a3d 35c7 06bc 6a18 063e
00000220: b152 c5bd c455 323e 229d c9be c57c f13d
00000230: 5262 33bf a4b5 2a3f fc65 3d3c 7bb1 83be
00000240: 9cb3 ecbc 829d 10bf d70b 203f f482 03be
00000250: 5090 53be 8833 793e 96ac 3d3e 0430 b03e
00000260: 8de4 87bd 64dd 1d3f 53ee 36b9 907a 25bf
00000270: 71e6 283f f5e8 943e 7905 2bbe f467 d83d
00000280: 6304 933e 70ea 8cbe 2195 913e 153f 0abf
00000290: d70f e33d d0ee 47bf a696 22bf c01c 5b3f
000002a0: 5338 093f b811 ab3d 0cab ddbc 51fb cbbc
000002b0: 715f 9c3e f400 e0be 9b19 d43d 37c9 10bf
000002c0: 32d1 efbe 2cec 443f 15cc e23d a6db 8c3c
000002d0: 6399 26bf 9628 5c3f d56f 953e abdd 733d
000002e0: 92b5 5c3e 7128 bbbe 73dd 58be 56a6 db3e
000002f0: 2bc1 69be 0418 eb3d 0923 053f e697 88be
00000300: 09d5 973d f71b d6be 3606 8a3d 3abd 15bf
00000310: 3040 98be 9639 f4be 4d8b 0dbe 5608 233e
00000320: 76ba 6cbe c4eb 2abf ec4d 3f3e 1255 453d
00000330: a844 7e3e 6ce9 9e3c 96c9 97be f2c4 4abe
00000340: ae59 ebbe 482e 823e 66d9 92be 16e3 723f
00000350: fc9a 6f3d e706 0cbf ade8 c73e 006b 2c3f
00000360: ed39 03be 0d10 243e 3fe6 14bf 5b84 443e
00000370: 4b4c 87be 92a1 07bf 36bc f73e fcf1 343e
00000380: 257c 333e 7e7c 32bf 5eb8 463f 7984 21be
00000390: d699 ddbe 229e 723e 88cc 39bf 753f b0be
000003a0: 3554 713f 8fe2 653e 4441 aa3d 8b23 a1be
000003b0: 2545 273f 0772 0c3f faa3 c83e f670 733e
000003c0: f6fa a0be f525 18bf da85 5fbe bbaa 6dbe
000003d0: 7ffc 243e f643 17be 154d 03bf 9a8e 4fbd
000003e0: 1633 a3be db0c 6a3e bd94 493f 607e 87bd
000003f0: ed70 0fbe 134b 15bf 6759 303e e849 17bf
-0.37625405 0.57708293 0.023099352 0.15847671 0.19566625 -0.3224387 0.0173921 1.0916988
-0.080423035 0.20294854 0.10425622 -0.32212088 0.09864472 -0.3413719 0.16748519 -0.48703745
-0.45695266 -0.17314665 0.03897917 0.07530988 0.92523015 -0.15805544 -0.03675493 -0.59106934
0.15141444 -0.4220848 0.5969927 0.41488996 0.12765588 0.047677666 -0.7739055 -0.8548874
0.048380863 0.7866497 0.17790708 -0.42907542 0.44621265 -0.07436341 0.059882943 0.18357304
-0.2649287 -0.7433471 -0.033256877 0.35860986 0.30334044 -0.8688293 -0.68566364 0.012804923
0.45467705 0.23044665 -0.62926096 0.28983665 -0.4226559 0.25929683 0.1062835 -0.78412604
-0.6101897 -0.031231683 0.48294795 0.19568524 0.13925013 0.45437327 -0.10415376 0.5966879
0.062055733 -0.26835078 0.86704904 0.39306787 -0.6606204 0.13434191 -0.38455087 0.28344017
-0.26348573 0.3520355 0.1737753 0.01605814 0.40516037 0.048265938 0.50934666 0.09055339
0.05201561 0.607843 0.35744792 0.550444 0.22333293 -0.44213393 0.6244222 0.3747959
-0.0710644 -0.007246409 -0.35568252 -0.6907716 -0.0881235 0.00983023 0.27036375 0.52089983
-0.061952908 0.18859367 -0.6642686 0.28388032 0.5016134 0.21546957 0.2140713 0.76555747
0.0829594 -0.8049343 0.9625765 0.32402828 -0.68976957 0.37625748 0.01857923 0.24670476
-0.07546133 0.40751645 0.1343588 -0.67870486 -0.6764801 0.014862276 0.36752248 0.25129864
-0.44218376 -0.4808697 -0.122769885 0.011203081 0.10815705 -0.4334992 -0.4883572 0.3908514
0.23807079 0.12295667 -0.051278055 0.46532205 0.31387267 0.061219197 -0.008226206 0.1309525
-0.09634913 0.1741553 -0.39377695 0.11791376 -0.700719 0.6668341 0.0115599595 -0.25721344
-0.028894238 -0.5649034 0.62518066 -0.12842923 -0.2066052 0.24336064 0.18522868 0.34411633
-0.066353895 0.6166594 -0.00017445655 -0.6464014 0.65976626 0.29083982 -0.16701306 0.105667025
0.28714284 -0.27522612 0.2843409 -0.54002506 0.110870056 -0.78098774 -0.6351112 0.85590744
0.5360157 0.08352989 -0.0270591 -0.02490011 0.30541566 -0.43750727 0.10356446 -0.5655703
-0.4683929 0.7692287 0.11074082 0.01719458 -0.650778 0.8599943 0.29186884 0.05953757
0.21553639 -0.36554292 -0.21178226 0.42900342 -0.22827594 0.1147919 0.52006584 -0.2667839
0.0741368 -0.4181821 0.06739466 -0.5849186 -0.2973647 -0.47700185 -0.1382267 0.15921149
-0.23118004 -0.66766 0.18682069 0.048176832 0.24830878 0.019398414 -0.29645985 -0.19801691
-0.45966858 0.25425935 -0.28681487 0.94877756 0.058497414 -0.5469803 0.39044705 0.6735077
-0.12815066 0.16021748 -0.5816383 0.19191115 -0.26425394 -0.5298091 0.4838578 0.17670435
0.17527826 -0.6972121 0.7762507 -0.1577319 -0.4328143 0.23693135 -0.72577715 -0.34423414
0.94269115 0.22449706 0.0831323 -0.3147243 0.6533988 0.5486149 0.39187604 0.2377356
-0.31441468 -0.5943292 -0.21828404 -0.2320966 0.16111945 -0.14772019 -0.5128949 -0.050673105
-0.31874913 0.22856466 0.7874258 -0.06615901 -0.14007922 -0.5831768 0.17221604 -0.59097147

bias f4 [100]
00000000: fd8c c43d 4c66 dd3d 2b77 0b3e 3a5a 363e
00000010: d471 803e e21b cb3d 74cc 5a3e 6f6e ee3d
00000020: 363a 543e bce9 2d3e 59db 023e bfe0 3f3e
00000030: 5f01 073e 1cf5 813e 7faa c43d 3156 b73d
00000040: 9c81 163e cfde e43d 546e 3b3e e715 003e
00000050: 59b2 0d3e b267 c03e f4b6 b63d 8bc2 213e
00000060: 6938 1c3e eab6 963d 57e3 963d f1b2 e13d
00000070: 4f74 333e e3ce 703e 96df e73d 857f d63d
00000080: 625b 183e 1066 0d3e 29de fe3d b24c c33d
00000090: 00f0 513e 5320 063e 4333 0b3e dafd 453e
000000a0: 42d9 253e 7e0e 353e 5108 683e 4cae 0a3e
000000b0: 081f d43d d8b8 5b3e b032 a83d ee2f 583e
000000c0: 2b8d 803e e291 373e fb95 363e d065 2b3e
000000d0: f0ee f73d 1ea4 e43d df33 043e b3d1 593e
000000e0: 4e6b a63d abbf 103e 51dc 0f3e 8015 023e
000000f0: d5e4 0e3e c893 a33e 8336 e13d 036f 1b3e
00000100: 8a54 023e 63af 293e 5607 5d3e 5d4f 893e
00000110: f421 4c3e 3e17 083e 7b57 f63d 5e1b 233e
00000120: cf20 ee3d e85e 103e c6ca 003e 1923 0b3e
00000130: 29c5 083e 1682 d83d 1cec 623e 1ce5 3e3e
00000140: 1c45 983d 0206 ce3d 5042 dd3d 9d19 a03d
00000150: 1960 1f3e a971 333e 2bb2 7d3d 0ba1 383e
00000160: 7f79 fa3d d453 3b3e 7c95 033e 74fe e03d
00000170: fce1 2a3e 1890 c13d 988a fe3d a7b1 2d3e
00000180: 672e cb3d 2d62 2e3e f4da 353e a178 ed3d
0.09597204 0.10810527 0.13619678 0.17807856 0.25086844 0.099174276 0.21367055 0.11642157
0.2072533 0.16983694 0.12778987 0.18738078 0.13184117 0.25382316 0.09602832 0.089519866
0.1469788 0.1117531 0.18303806 0.12508355 0.13837565 0.37579113 0.08921614 0.15796869
0.15255894 0.07359107 0.073675804 0.110204585 0.17524837 0.23516421 0.113219425 0.10473541
0.1487861 0.13808465 0.124447174 0.09536113 0.20501709 0.13098268 0.13593774 0.19335118
0.16196159 0.1768131 0.22659422 0.13543051 0.10357481 0.21457231 0.08212793 0.21112034
0.25107703 0.17926744 0.1783065 0.16738057 0.121061206 0.11164115 0.12910412 0.212714
0.081259355 0.14135616 0.14048888 0.12703514 0.1395448 0.31948686 0.109967254 0.15179066
0.12727562 0.16570811 0.2158483 0.26818362 0.19934827 0.13290116 0.12028404 0.15928409
0.116273515 0.14098704 0.12577352 0.13587607 0.1335646 0.10571687 0.22160381 0.18642086
0.074350566 0.1005974 0.10803664 0.07817385 0.15564002 0.17523827 0.061937492 0.18030183
0.12230205 0.18293697 0.12849993 0.10986033 0.16687769 0.09451312 0.124287784 0.169623
0.0992096 0.17029639 0.17759305 0.11595274

weight f4 [100, 100]
00000000: 408c 94bc 147f c83d b15b be3d 2282 0e3e
00000010: 5271 1fbe e212 603c 9927 033f c63c a83b
00000020: ca35 b83e c108 dc3e a9d6 c73d 686f 833e
00000030: bae8 163d ce7a 70be 671d ea3d dac3 fd3c
00000040: f285 053e 7047 d9bd 7a5a 603e c089 67bd
00000050: 76e4 f83d 04e2 efbd bfe7 313c 3ce2 733e
00000060: fd77 063e 90f0 3a3e 5e77 ed3c 03a1 6ebc
00000070: bb82 06be 5cb5 ffbc 76e1 a23c aa20 a63b
00000080: d782 f73d bf27 e23e 390f 5d3c ded8 913e
00000090: 4f8b 35bd 3e33 f53d 6bc7 e53b 21e7 f53d
000000a0: ca20 833e 03a9 74ba cc6f 4cbe 076d 6c3b
000000b0: 2f98 5b3e 5fdf f2bd 81b9 8f3e 921d 95bb
000000c0: 10b9 513e f0a4 273e 101a 0abe f7fa 50bd
000000d0: 20c1 df3b d12e 063e 6d8e ffbc 5883 183e
000000e0: c354 353e 7b80 a13e a7c2 d0bc ea67 213d
000000f0: 7ff8 4e3e f00e 69be c515 7b3d 7db4 8c3d
00000100: 1bb3 41bd 50fb 88bc 4374 6bbe eee4 17bc
00000110: c615 3bbe cd49 2fbc 0ef5 533d 6ade 743d
00000120: d03f d9ba b59b 003e 15d8 0e3f 3e7f 853d
00000130: 542a f83c 0b3a d93d 3401 75bd 2ffe 0dbd
00000140: d88f aa3e 7d75 a63d f459 acbc 2ff7 873d
00000150: 5e1b ae3e d68c a73e c0fb 67bd 9bb1 39be
00000160: b0eb 063d ad40 623e 1459 55bd 28d3 31be
00000170: c1a6 ae3e e888 4b3d 4e95 bbbc bc16 853e
00000180: 10c9 453d b00c 923c 1909 8bbd 5d94 9d3d
00000190: a721 4bbc cbe9 423d e53a b33d d32d d63d
000001a0: 6e16 973d b62d 4d3d 3cfc 433e c9ec 3e3d
000001b0: 803a 6f3d cdb0 8f3e c149 b23d fc04 1b3e
000001c0: 5104 71bd afd8 703d 26e2 523d 4634 b1bc
000001d0: fb44 7dbd 81ce ab3b e3d4 1a3e 53be 443e
000001e0: 96eb 06bd e457 ea3c 4402 6fbb 4326 e73d
000001f0: 1714 e23d e883 3d3d aee3 afbc 6efb 983d
00000200: a17f d9bc a1c5 de3b f15a 91bc 4496 823c
00000210: 448f 713d 5c2d 2d3e efb4 d23d 008e b93d
00000220: 32c7 e4bc 836e 6bbd d04a 55bc 6d40 d13d
00000230: 7b01 7d3c 7918 ce3d f980 cb3d a14b 3a3d
00000240: ecb3 373d c2ae b5ba 5582 013e 829d 3ebd
00000250: 61a8 a23c 081a 4c3d dc96 c23d f8b6 31bc
00000260: 8e01 c23b a859 083d 538a 003e 10b0 1c3e
00000270: d81c 3abd 976c 293e 49db 4a3e 0c03 5ebd
00000280: 66e6 e6bd 229f ed3d afff 1b3d 9c06 d23b
00000290: ab2c f93d 9683 ce3d b44a 423e 5e29 823d
000002a0: a0a3 1e3d 3a7e bf3c 38db 6e3d 1ff7 413d
000002b0: 5d1b 1bbd 05e3 123d 6c60 193e 1ae2 e3bc
000002c0: fa76 693d 4012 6f3d 2a49 e63d fb00 a3bd
000002d0: 2c9e 973d 03df 6e3d 1642 a33d d559 c23c
000002e0: 351b 693e 7b4a 283e ee7d c5bd 9766 203e
000002f0: b7b3 a33c 59c0 0d3e 02b9 0e3e 24e5 d439
00000300: 8e8a 2f3e de3c 313c c10c 303d c65a d53d
00000310: c0c3 c73d 4e50 a4bd cbeb 073e 7f39 0ebe
00000320: 0769 2f3e 78d4 f6bd 7be5 383d 627f 973e
00000330: f728 8fbe 0f18 dc3d bf98 4d3e ab22 033e
00000340: 576e cb3d 53ff da3e 007a ca3e 8b1c 123e
00000350: 3ada 143d 60c3 c53c ea7d 373e b7d5 8c3d
00000360: 69ce 8bbd 7258 c43d 16de 293e 4bfe f6bd
00000370: 0bdc 6ebd 7ce4 203e b898 e53d 7e72 3e3e
00000380: 1a5a 863e 6061 d53d f6f7 d1bd 3ab9 323c
00000390: eb33 473e 7413 083e 43c9 ee3c dbdf c63d
000003a0: ac6e e1bd 9f82 a43d cc89 973d 5cfa d43d
000003b0: 47ec 2d3e 0e1a f73d 05ec 4cbd 6e8a 0b3f
000003c0: 1fa9 343e 3b75 8b3d a547 443d cd7d 33be
000003d0: 2642 de3d 3a9c 3c3e f244 093d affc 823c
000003e0: 6702 7a3e 03c6 a83d 7cdb 53be a975 3c3e
000003f0: b216 62bd b238 e93c b09a 8b3a 3d18 723e
-0.018133283 0.09789863 0.092948325 0.13916829 -0.15570572 0.013676377 0.51232296 0.005134198
0.35978538 0.4297543 0.0975774 0.25670934 0.03684304 -0.23484346 0.11431389 0.030977178
0.13039377 -0.10609329 0.21909514 -0.056527853 0.121529505 -0.11713031 0.010858475 0.2381677
0.1313171 0.1825583 0.028987583 -0.014564755 -0.13135807 -0.031214409 0.019882899 0.005069812
0.120855026 0.4417095 0.013492399 0.2848577 -0.04432231 0.11972664 0.007012298 0.12006975
0.25610954 -0.0009333046 -0.19964522 0.0036075728 0.21444772 -0.11859011 0.28071216 -0.004550644
0.20480752 0.16371512 -0.13486505 -0.05102059 0.006828442 0.13103797 -0.031195844 0.14893854
0.17708115 0.31543335 -0.025483442 0.03940574 0.20211981 -0.22759604 0.061300058 0.06870363
-0.04728995 -0.016721398 -0.22993569 -0.00927089 -0.18270025 -0.010698748 0.051747374 0.059782423
-0.0016574804 0.12559398 0.55798465 0.0651841 0.030293621 0.10606774 -0.0598156 -0.034666236
0.3331287 0.08127878 -0.021038987 0.066389434 0.34005255 0.32724637 -0.056636572 -0.18134157
0.032939613 0.22094984 -0.052086905 -0.17365706 0.34111598 0.04969111 -0.022898342 0.25993907
0.04828745 0.017828315 -0.067888446 0.07694314 -0.01239816 0.047586244 0.087514676 0.10457959
0.07377325 0.05009242 0.19139189 0.046612535 0.0584054 0.28064576 0.08705474 0.1513862
-0.058842007 0.058800396 0.051485203 -0.021631371 -0.061833363 0.005243123 0.15120272 0.19213228
-0.032939516 0.028606363 -0.0036469856 0.11286595 0.11038988 0.046268374 -0.02147087 0.074698314
-0.026550116 0.0067984615 -0.01774356 0.015940793 0.05897452 0.16911834 0.102884166 0.090602875
-0.027927015 -0.05747844 -0.013018325 0.10217366 0.0154422475 0.100632615 0.09936709 0.04548228
0.04484932 -0.0013861286 0.12647374 -0.04653693 0.01985568 0.049829513 0.095014304 -0.010846846
0.0059205955 0.033288628 0.12552767 0.15301538 -0.045437664 0.1654533 0.19810213 -0.054202124
-0.11274414 0.11602618 0.038085636 0.0064094793 0.12166723 0.10083692 0.1897381 0.063555464
0.038730264 0.02337562 0.058314532 0.047354814 -0.037867893 0.035861034 0.14978188 -0.027817775
0.05699823 0.058367014 0.11244424 -0.079591714 0.07403216 0.05831815 0.07971589 0.023724476
0.22764285 0.16434662 -0.0964316 0.15664135 0.019983156 0.13842906 0.13937762 0.00040606514
0.17142698 0.0108177345 0.042980913 0.10417704 0.09754133 -0.080231294 0.13273542 -0.1388912
0.17129909 -0.12052244 0.045140725 0.29589373 -0.2796094 0.10746776 0.200778 0.12806194
0.09933155 0.42772922 0.39546204 0.14268701 0.03634093 0.024141014 0.17919126 0.068767
-0.06826479 0.09587182 0.16588625 -0.12060221 -0.058315318 0.1571216 0.112107694 0.18598363
0.26240617 0.104189634 -0.10252373 0.010908419 0.19453399 0.13288671 0.029148703 0.09710666
-0.11007437 0.080327265 0.073993295 0.10399315 0.16984664 0.120655164 -0.050029773 0.545081
0.1764264 0.06809469 0.047919888 -0.17528458 0.108524606 0.1841897 0.033513017 0.01598963
0.24414979 0.08240893 -0.20689195 0.18404259 -0.055197425 0.028469417 0.0010650959 0.23642059

bias f4 [100]
00000000: 44b8 173d c02c 013d 31b5 2d3d 3bb5 113d
00000010: b53f 36bc 4a54 633d 6974 313d a3c2 2f3c
00000020: 37c2 58bc 6d54 2a3d f158 fb3c dc0b f13c
00000030: 0bd9 8f3c b870 553d 8381 7d3d 6ec1 443d
00000040: e08c 853d b235 513d 792d 7e3d b032 793d
00000050: 3313 e83d 927f e63d 0c76 b23d b044 333d
00000060: 9282 133d 3db1 253d a6ff 893d a790 4bbd
00000070: bb32 8b3d f6b2 223d c6e7 253e f78e 873d
00000080: 0417 ab3d 74de 8ebc a38c e53c d270 e13b
00000090: e2bd 233e fe60 183d 5422 b6bc c665 c83c
000000a0: 9a79 163c eb41 cf3d 9b06 ba3d 1032 593d
000000b0: 6c9c ef3c 857a a03c 0f0d c53c f295 8d3d
000000c0: 33b7 b73c 3d43 7b3d b854 7a3c 6f23 ab3c
000000d0: aff5 ff3b 3b0c 183d 3900 273d 8714 263d
000000e0: a683 1b3d 73f8 663c 4233 8e3d 941d 84bd
000000f0: ac11 723d ae1a 743d baf1 bc3d 8c0e 543c
00000100: 4f2c b63d f89b 2e3c a994 bf3d 4451 583d
00000110: c6bf 503d c5eb 2c3d eea2 ae3d bbb2 773d
00000120: a03f df3c 88bb 553d 84f6 783d ce56 ee3c
00000130: 1b39 a93d 4320 413d b29c 0c3d f2d1 963c
00000140: 924d 023c ae42 3a3d b248 723d c346 c63d
00000150: fe56 613c ab10 0b3d e1fd 6f3c bffd 043d
00000160: 02ad 603d 539b 32bd 9e10 e33d 89cd 853d
00000170: 80fc fd3c 031a 5d3d 5b3e 633d b056 613d
00000180: 24c8 663d afd4 9e3d a754 453d 8d41 ed3d
0.037040964 0.031536818 0.042409126 0.035573225 -0.011123587 0.055500306 0.043323908 0.010727557
-0.013229898 0.04158442 0.030682059 0.0294246 0.017559549 0.05210945 0.06189109 0.04803603
0.065210104 0.0510766 0.062055085 0.060839355 0.11331787 0.11254801 0.08713922 0.043766677
0.036013193 0.04045223 0.06738214 -0.049698498 0.067967854 0.03972145 0.16201696 0.06619065
0.08353999 -0.017440058 0.028021162 0.0068799043 0.15990403 0.037201874 -0.022233166 0.024462592
0.0091842655 0.10119995 0.09083291 0.05302626 0.029249392 0.019589672 0.024054078 0.069133654
0.022426223 0.06134342 0.015278988 0.02089092 0.00781127 0.03712104 0.040771697 0.04054692
0.037967347 0.014097321 0.069433704 -0.06450954 0.059098884 0.059595756 0.09225793 0.012942921
0.0889517 0.010657303 0.093545265 0.052811876 0.05096414 0.042217035 0.0852717 0.060473185
0.027252018 0.052180797 0.06078197 0.029094126 0.08262845 0.047149908 0.034329124 0.018410657
0.0079530645 0.045473747 0.05915136 0.096814655 0.013753651 0.033951443 0.014647932 0.032468554
0.054852493 -0.04360516 0.11087154 0.06533343 0.03100419 0.053979885 0.05547939 0.055014312
0.056343213 0.0775541 0.048176434 0.115847684

weight f4 [100, 100]
00000000: 177a 753d 256a 86bc 6e86 3f3e 1cf9 79bc
00000010: ac1d 9abc 61a1 263e 5779 6f3d 4673 09bd
00000020: 17c6 d9bc 23ce 90bd f9c3 893d 8346 b83d
00000030: 1e0a 99bd 0e95 18bd e26d 6d3c 3f45 3b3c
00000040: a460 513d f55a 07bb 949e 2a3d d5cf fb3c
00000050: 9583 8bbd 4945 173e 3762 d5bd 932c de3d
00000060: 2c7b 7a3d 2abb 93bd d7ac a63d d4bf a1bd
00000070: ea47 fe3c 0d9f 7cbc 62f2 5b3e c28a 253e
00000080: 186a 9c3c 1cdd 99bd 5871 9bbb 1f6c 0fbd
00000090: bdb6 c8bc e1d0 62bd 6f28 3bbd fdc4 f2bd
000000a0: c8d0 e03b 44e1 a13d 19cf cc3d 9ee7 8f3d
000000b0: 3b83 383b c46f b2bc 317f bbbd 18d3 3d3d
000000c0: 83c1 0fbd 46d1 e13d 308a 60bd 5eb8 793d
000000d0: 7656 cfbc da74 103e fccf 0c3d de2c c73c
000000e0: bc0b fb3d 5c42 0dbd 1fe6 f13d 3a16 97bd
000000f0: c32d 3c3e 40fe 163d cd9d 563d 1045 ed3b
00000100: 16b7 fd3c d7cc 9ebd c524 14bd ab5d 07bc
00000110: a819 973c 3f55 783d 8db5 3f3d c0be 983d
00000120: 5e4c 373d f6a7 f53d 310c 7e3d dc2a d83d
00000130: 3c34 1bbd 18e6 473d 1f63 383d 90ef f83c
00000140: 7367 48bd de54 533d 1e99 123d 3147 97bd
00000150: 5b3a ffbc 8384 dc3d d3f6 9f3d 0cce a2bc
00000160: 1567 633c 3a87 fdbd fc08 8c3d c2b5 c73d
00000170: 94d0 3c3d 42fd 733d 48c5 c3ba 1db2 aa3d
00000180: 3c8f 96bd 03ce 443d d01a 873d ab1d 00bd
00000190: a615 5abc 2806 803d 0b12 df3d 696e 093c
000001a0: b8f2 00be 386c e13d e319 983d b357 ec3b
000001b0: 3a9f 27bc 9d12 103c 879b 4b3c 86d8 723d
000001c0: bb48 c9bb e430 ae3a de6b cf3c ab70 8f3b
000001d0: 5e8d 95bd 8423 a83d 400b cf3d ca3e 1fbd
000001e0: acd2 843d e263 be3c 500a 0a3e 5073 543d
000001f0: 0135 2f3c 8f27 a93c ecd7 cc3c 9487 f8bd
00000200: cc96 5b3d 5acf 003d ed92 663e 80d3 42bc
00000210: 1a88 a03d b2ac 3fbd cbb8 6dbc dbab 00bd
00000220: 2bd0 f73d cbae a3bd a661 09be 65a1 1e3c
00000230: 5e27 c33d a9e4 85bc d727 bd3c f509 6aba
00000240: a850 f1bd 07e7 95bd e71d 96bd 91ad bf3d
00000250: 4d27 563d c7f1 323e 841d 853c 804e d63c
00000260: 7984 993c 6d82 053e 0ef6 d33d 3127 8139
00000270: 2502 c03d 62e8 afbd d954 2bbd ae9c a9bc
00000280: 3d3a 543e 1c95 96bd f07b bc3d 9bec cebd
00000290: e35b 93bb 66cc ef3c ac6f 6b3c 126c 423d
000002a0: 1bc5 c2bd 4ec5 a93c 68db c0bd 14ba cd3d
000002b0: 07a0 9a3d aa12 f43d 31c1 283d 6918 913d
000002c0: 0e88 66bd d41b b33d 7055 263e 3365 d4bd
000002d0: 99bc 57bb 438f a83d a0e0 97bc f415 ff3b
000002e0: 85d2 06be fb56 9abd 4d8e fe3d 9cc0 c1bd
000002f0: 7836 303c 2dab c5bd 61c8 be3c e892 ddbb
00000300: 8147 5dbd 50cb f63c 8f77 653c b92e e63d
00000310: f8eb 593d 192b 263d 1cbb 8c3d fc71 8b3b
00000320: 423a 773c 44b7 76bc 92d9 5b3e 5696 f03d
00000330: c697 79bd 7534 d63d cccd a43d 5a15 a6bd
00000340: 4e7f 62bd bb78 653d 7677 c13d 5d08 893c
00000350: fb16 a6bb 60a9 22be 2860 eb3d b8eb 163e
00000360: 0a96 2a3e 2a8a 243e ce9a 6bbd d43b a63d
00000370: d008 bbbd 6df9 9f3c 3556 e4bd 947b 5b3c
00000380: b5b3 4d3d b3a0 043d 955f 9bbd 24ec 98bd
00000390: 8b3b abbd dc6d b8bd 6252 003e ab1f 4f3d
000003a0: 3266 883d b359 f3bc c06e 8a3b 87d6 f2bc
000003b0: 8553 ccbc e96c 233e f3ac d8bd d1e7 8abd
000003c0: 47fb 94bc 8e69 9cbd be39 aa3d 50c0 9fbd
000003d0: 90a8 d83d ace2 cbbc a778 ad3d 87d1 16bd
000003e0: dc0a 473d cfed 2a3e 3fdb a43c a775 023e
000003f0: ee1c 04bd 6944 fd3c 9af0 15bd a7f6 263d
0.059930887 -0.016408036 0.18703625 -0.015257146 -0.018812977 0.16272499 0.058465328 -0.0335572
-0.026583714 -0.070705675 0.06726832 0.08997824 -0.07472633 -0.037251525 0.01449153 0.011430084
0.051117554 -0.002065358 0.041655138 0.03073875 -0.06812207 0.14772524 -0.104191236 0.108483456
0.061152622 -0.07213433 0.08138435 -0.078979164 0.03104015 -0.01541878 0.2147918 0.16166213
0.019093558 -0.075128764 -0.0047437362 -0.03501522 -0.024501199 -0.055374984 -0.045692857 -0.11853979
0.006860826 0.07904294 0.10000438 0.07026599 0.0028154391 -0.02178181 -0.09155119 0.046343893
-0.035096657 0.11026244 -0.054819286 0.060966842 -0.025309782 0.14107075 0.034378037 0.024313387
0.122580975 -0.034487113 0.1181147 -0.07377286 0.18376832 0.036863565 0.052396584 0.007240899
0.030971091 -0.07753914 -0.03616788 -0.008262078 0.018444851 0.060628172 0.046804 0.07458258
0.044750564 0.11994927 0.062023345 0.1055505 -0.03789161 0.04880342 0.045016404 0.03038767
-0.048926782 0.051594608 0.035790555 -0.073866256 -0.031155756 0.10767462 0.0781075 -0.019873641
0.013879557 -0.12379308 0.06837651 0.097514644 0.046097353 0.059567697 -0.0014936114 0.08334754
-0.073515385 0.04804803 0.06596911 -0.031278294 -0.013310825 0.06251174 0.10892113 0.00838814
-0.1259259 0.11006969 0.074268125 0.007212603 -0.010230834 0.0087935 0.012427217 0.059288524
-0.0061427034 0.0013289717 0.02531999 0.0043774447 -0.07302354 0.08209899 0.10109568 -0.03887824
0.06485495 0.023240987 0.13480496 0.051867783 0.010693789 0.020648746 0.025005303 -0.121352345
0.053610608 0.031447746 0.22516985 -0.011891246 0.07838459 -0.046795554 -0.01450939 -0.031413894
0.12100252 -0.079923235 -0.13416156 0.009682034 0.09528993 -0.016344385 0.023090286 -0.00089278753
-0.11782962 -0.073194556 -0.07329922 0.09359277 0.052283574 0.17475043 0.016249426 0.026160479
0.018739926 0.13038035 0.103496656 0.00024633997 0.09375409 -0.085892454 -0.041828964 -0.020704594
0.20725341 -0.07352659 0.09203327 -0.10103723 -0.0044970377 0.02927227 0.014369886 0.047466345
-0.09510251 0.020723965 -0.094168484 0.10045257 0.07550054 0.119176224 0.041199867 0.07084734
-0.056282096 0.08745542 0.1624353 -0.10370865 -0.003291881 0.0823045 -0.018539727 0.0077845994
-0.13166244 -0.075361215 0.124294855 -0.094605654 0.010755174 -0.0965179 0.023288907 -0.0067618974
-0.05402327 0.030126244 0.014005556 0.112393804 0.053203553 0.040568445 0.06871626 0.0042555314
0.015089573 -0.015058342 0.21469715 0.11747424 -0.060935758 0.10459224 0.08047065 -0.08109541
-0.05529719 0.05602334 0.094466135 0.01672762 -0.0050686575 -0.15884924 0.1149295 0.14738357
0.16658798 0.1606833 -0.05752068 0.0811688 -0.0913254 0.019528115 -0.11149255 0.013396163
0.05022021 0.032379817 -0.0758659 -0.07466915 -0.08360966 -0.09005329 0.12531427 0.05056731
0.06660117 -0.029705858 0.004224628 -0.02964331 -0.024942169 0.15959515 -0.105798624 -0.06782497
-0.018186225 -0.076373205 0.08311795 -0.078003526 0.10579026 -0.024888359 0.08470278 -0.036820915
0.04859434 0.1669228 0.020124076 0.12740193 -0.032254152 0.03091641 -0.03660641 0.04076257

bias f4 [100]
00000000: 8db6 523d 3a63 de3c a12b cd3c 52c9 863d
00000010: c257 08bc a7a7 e93b 7bca 8b3c 5149 223d
00000020: 52ab 753d 5e5d 1a3d fc26 563d 6eb7 4e3c
00000030: a92d 273d 1a23 8e3d bffe 043d 2766 cd3c
00000040: ae88 193c 1657 cd3c 4197 7d3c 052c b43c
00000050: 1965 a53c 100f 213d f75b df3c f995 703c
00000060: 3bef 683d eb0e e23d e999 c53c ff54 3ebc
00000070: 32b6 073d 9595 9f3c 3c91 003c cf7a 963b
00000080: 6ec7 2bbd 9db0 b23c 7a4f b63c 1422 11bc
00000090: 41d7 c63c eef5 cf3c 332d 203c 6f78 12bc
000000a0: ec94 3b3d a10a e0bb 1ce4 df3c 22ef d33c
000000b0: f874 373c 0132 b33c b23e a0bc 63fe 9fbd
000000c0: cf98 6e3c 190c 0e3c 2ac5 5b3c 75ed 973c
000000d0: bac8 863d 2b5c bc3b e495 ae3c 8df1 143c
000000e0: 432e 0f3d 0d50 99bc 2f08 193d 1a55 2f3d
000000f0: a46b 1a3d daf2 8f3d 4ee1 e2b9 5076 3f3c
00000100: 9b7d c83c e4bd e33c 22cc debc a029 68bb
00000110: 2fc6 dd3c e3fe 013d de87 86bb 27f7 43bd
00000120: 9950 743d dc21 7a3d 6927 873d 40d4 123d
00000130: 6ee8 133d 8d5b 4f3c 3627 b33c cd9f 813b
00000140: ced5 a93c 0799 6e3c ed4e dabb addb 93bc
00000150: ff9d 6dbd ab53 b6b9 cc53 64bd 9e00 2e3d
00000160: 9873 6d3c 4a8b 0a3d 8737 6abc 5df1 2c3d
00000170: e0a9 103d 0d15 e73c dfcc 583d 78f9 0f3d
00000180: 8165 a03c 702b 053d 74fd 1d3c bc0a d03c
0.051443625 0.027146924 0.025045218 0.065813676 -0.008321704 0.0071305814 0.017064324 0.0396207
0.059977837 0.0376867 0.052283272 0.012616975 0.04081503 0.06940289 0.032469507 0.025073124
0.009370966 0.02506594 0.015477956 0.021993646 0.020189809 0.039321005 0.027265532 0.014684194
0.056868773 0.110380016 0.024121242 -0.011616944 0.03313274 0.019480506 0.007847127 0.0045922766
-0.041938238 0.021812731 0.022254694 -0.0088582225 0.024272563 0.025385823 0.009776401 -0.008939846
0.04579632 -0.0068372046 0.02733045 0.025870863 0.011197321 0.02187443 -0.019561145 -0.07812192
0.0145628 0.0086698765 0.013413707 0.018545846 0.06581254 0.005748292 0.021311708 0.009090793
0.034956228 -0.018714929 0.03736132 0.04280577 0.03770031 0.07028742 -0.00043273944 0.011685923
0.024473956 0.027800508 -0.027196947 -0.00354252 0.02707204 0.03173722 -0.004105552 -0.047843125
0.059647176 0.061067447 0.06599314 0.03584695 0.036110334 0.012656105 0.021869283 0.0039558173
0.020731833 0.014562852 -0.0066622407 -0.018049086 -0.058012005 -0.00034776083 -0.055743977 0.042481057
0.014492892 0.033824243 -0.014295465 0.04222237 0.035318255 0.02820828 0.052929755 0.03515002
0.01957965 0.03251213 0.009642947 0.025395744

weight f4 [100, 100]
00000000: 4fb7 df3d 8cd7 b93d 0336 e7bb b049 24bd
00000010: caba 3b3d 8a64 b4bc 66dc bbbc 0acc 903d
00000020: 5960 8e3d 4a03 2dbd bb6e 19be a5d2 47bd
00000030: 6d5c 303d 216d 1e3d 4c55 97bd d777 5a3d
00000040: 6722 c23c 70a5 173b 3cb4 b6bb e048 8b3d
00000050: 9d33 f2ba 49ed 833c 0c1b 9d3c 793a a03d
00000060: 4f51 19bd f731 54bd e890 743d 2ffc 70bc
00000070: d126 43bc bb81 553c f89f f6bc 1ef4 0bbd
00000080: 1c3a ba3d db51 37bc 22e2 b6bc 1e3e 52bc
00000090: 4d9e e23d 2144 ebbc f670 cebd 9359 4c3d
000000a0: 7d97 2a3d 42d4 82bd aaee 1bbd 9063 f23c
000000b0: cec6 bd3c 5682 9d3d 6f6b 273d 76b3 453d
000000c0: 22fe d33d 1d71 b23b 17f6 60bc b952 a8bb
000000d0: 0aef a83c e994 87bc bb9c e43c 3936 8cbc
000000e0: 0440 d33c a9a9 13bd 98c2 f13c 2ad4 5a3d
000000f0: bcd0 983d 777b 41bd d008 54bd 1184 123d
00000100: 4161 b53d e3b6 5bbd 727f 7fbd ce23 123c
00000110: 5540 eb3a 1832 0abd 13a1 94bd b805 ebbc
00000120: 0c1e d9bb faa6 553d 535f b5bc c149 c33d
00000130: 1db0 78bb ff19 873d 28c2 043d d904 6dbd
00000140: 0fc8 bd3d b69c b6bb 791c 77bc 4c9f f5bc
00000150: 94be f4bc c192 67bc 8b72 eb37 3052 963c
00000160: bbe5 11bd 86cb bbbc ea24 dfbd 3066 3c3d
00000170: 77cb 8e3c 65e7 5c3d 34f0 3bbd 7c0d 67bd
00000180: 7fd3 7e3d 1a39 a93b 6f51 24bd 25f1 51bc
00000190: 86d1 6a3c 78e3 b63d c1e9 8cbd e102 dc3c
000001a0: e03a ba3c 95a3 0d3d 85fa 0bbd f1a8 303d
000001b0: d526 4cbc 1e84 fbbc ad8d d0bc 85ec afbc
000001c0: fdc1 f2bd 57be 19bd d270 13bd 930e b63d
000001d0: 618a 8e3c 0e03 8d3d 73a7 f83c 9f46 043b
000001e0: 3e21 a5bd ef93 99ba e6ec 3cbd daba 383d
000001f0: 388a e2bd 0ec6 30bd 81d1 55bd ecbd 6dbd
00000200: 3ff5 a1bd 25cd 443d 614e 133a 241d 8dbc
00000210: c7bd a83d 4152 df3c 2f32 fc3c 0fda bc3d
00000220: af59 a4bd 1461 8a3d d369 09bd f106 aabc
00000230: d856 cbbc ba0c c1bd 15f1 03ba 47f4 6d3c
00000240: 10c6 3f3c daf0 893a 1a38 f73c 10a5 32bd
00000250: 63b1 aabd 451f c33d c2a6 16bd 4fd6 21be
00000260: 1c83 2bbd 06a8 ce3d c2c1 93bd 978b d93c
00000270: a692 e2bc 03ab cd3d 5917 b23d 88bf 2d3d
00000280: 202d 5dbd 81c0 94bd 75bb ecbd 6517 903d
00000290: 8a9b 393d a92f d03d 6a27 2b3d 95dc 12bd
000002a0: c690 063c 9803 853c 87be cbbd 8ac7 ba3b
000002b0: 5e60 7d3d 1309 883d ca56 e3bd f86c dbbd
000002c0: 03f7 c2ba 017e f53c 5f0d bb3d c928 40bd
000002d0: e57b 37bd 412b 263d 6d2e 2dbd 478b 463d
000002e0: b276 283d 8c4a 563d 4646 0c3d 0d39 b63c
000002f0: 7e84 37bd 9b95 bb3d bd82 ce3c e2b8 c63c
00000300: c81a e13c 99ad cd3d 78ea f83b 11e4 3c3d
00000310: 2fc4 913d 550a dbbc 42c0 75bd a9b8 b83b
00000320: 518c 183d ecb8 1cbe cc2d e53d 97b9 dabd
00000330: 8e70 c8bc aad2 643d be2c 42bd bdae 8b3b
00000340: b424 c83d fe0d 23bc 9c1c e43d db4a efbc
00000350: 14b0 7ebc 59ef eb3d 3158 b4bc b104 57bd
00000360: 727b 14be d568 e5bb 4ad1 013e bd02 673a
00000370: 70b3 e53d ebf7 053e 4b08 3d3d b12c a9bd
00000380: 8b6d 103e 7de9 913d ccd0 e23d 40a9 363d
00000390: 3c29 e5bd 9e40 4fbe 925c edbd 1879 953e
000003a0: 6537 8b3d 55e5 f838 b1c3 ddbc d9b6 eabc
000003b0: 28d0 ae3d 8ea0 833d 7eaf 853d 2181 9d3d
000003c0: 7da1 6d3d 9b02 813d 87d6 323c 3784 1f3e
000003d0: acf0 9b3d 12eb d13d 9adf b83c d37a 323e
000003e0: 2958 15bc 4421 843d 7e46 023e d595 ae3d
000003f0: 2570 a8bc a1ee 97bd 0422 933d fcac 3fbd
0.10923635 0.090743154 -0.0070559992 -0.040109336 0.045832433 -0.022020597 -0.022932243 0.07070167
0.069519706 -0.042239465 -0.14983647 -0.04878487 0.043056894 0.038678292 -0.07389316 0.053336944
0.023698045 0.002313938 -0.005575685 0.06801009 -0.0018478517 0.016104357 0.019177936 0.07823653
-0.037431058 -0.051805463 0.059708506 -0.014708563 -0.01191111 0.013031418 -0.030105576 -0.034168355
0.09093115 -0.011188949 -0.022324625 -0.012832193 0.1106535 -0.02871901 -0.10080139 0.049890112
0.041648377 -0.06388141 -0.038069405 0.02958849 0.023166087 0.07690875 0.04087394 0.04826685
0.10351206 0.005445613 -0.013730547 -0.0051368144 0.020621795 -0.016550498 0.027906766 -0.0171157
0.025787361 -0.036050472 0.029511735 0.05342499 0.07461688 -0.047236886 -0.051766217 0.03577048
0.0885644 -0.05364121 -0.0623774 0.008919669 0.001794825 -0.03373918 -0.07257285 -0.02868925
-0.0066258963 0.052161194 -0.02214018 0.09535552 -0.0037946769 0.06596755 0.032411724 -0.05786595
0.09266674 -0.0055728806 -0.015082472 -0.029983185 -0.029876031 -0.01413411 2.8067521e-05 0.018349737
-0.03561948 -0.022924196 -0.10895713 0.04599589 0.017431004 0.053931613 -0.045883372 -0.056409344
0.062213417 0.0051642777 -0.040116724 -0.012813841 0.014332181 0.08930105 -0.068805225 0.026856842
0.022733152 0.034579832 -0.03417446 0.043129865 -0.01246043 -0.030702647 -0.025458181 -0.021475086
-0.118534066 -0.037535038 -0.035996266 0.088894986 0.017399969 0.06885348 0.030353284 0.0020183695
-0.08062981 -0.0011717061 -0.04612436 0.04510007 -0.110615194 -0.04315763 -0.05220175 -0.05804245
-0.07908105 0.048047204 0.00056192843 -0.01722581 0.08239322 0.027260901 0.030785648 0.09221279
-0.08024918 0.067567974 -0.033548187 -0.020755263 -0.024821684 -0.094262555 -0.00050331774 0.014523572
0.011704937 0.001052405 0.030178118 -0.043614447 -0.08334615 0.095274486 -0.036780126 -0.15804408
-0.041873083 0.10090642 -0.07214691 0.02655582 -0.027657818 0.100423835 0.086958595 0.042418987
-0.053998113 -0.0726328 -0.11559192 0.07035712 0.04531435 0.101653405 0.041785635 -0.035854895
0.008213228 0.016237065 -0.099484496 0.0057000564 0.06185948 0.06642356 -0.11100538 -0.107141435
-0.0014874641 0.02996731 0.0913341 -0.046913896 -0.04479589 0.040568594 -0.042280603 0.04847267
0.04112882 0.052317187 0.034246705 0.022244 -0.04480409 0.09159394 0.025208825 0.02425808
0.02747859 0.10042877 0.00759631 0.04611594 0.07117497 -0.026738325 -0.059997804 0.0056372476
0.03724319 -0.15304917 0.11190376 -0.1067993 -0.024467733 0.055864967 -0.04740595 0.004262774
0.097726256 -0.0099520665 0.11138269 -0.029210499 -0.01554491 0.11520261 -0.02201471 -0.05249471
-0.14500216 -0.0070010223 0.12677494 0.0008812359 0.112158656 0.13082854 0.046150487 -0.08260477
0.14104287 0.071246125 0.11074981 0.044595003 -0.111895055 -0.20239493 -0.11589922 0.2919395
0.06797675 0.00011868278 -0.027070852 -0.028651642 0.085357964 0.06427108 0.06527613 0.07690645
0.058015335 0.06299325 0.010915405 0.1557778 0.07614264 0.10249914 0.022567559 0.17429666
-0.009115257 0.064516574 0.12722203 0.08524672 -0.020561287 -0.07418562 0.07184222 -0.04679583

bias f4 [100]
00000000: e463 4b3c fd70 bcbb bf69 2f3b d183 173c
00000010: 53c8 ee3b c722 b0bc 88cb cfbb 2d8a 2bbc
00000020: 90ba 8bbc a6b3 95bc 9e5e a43b 67b0 a4bc
00000030: c66c bb3c 5335 783b 0443 a73c e2b7 9c3c
00000040: 44ff 123c 9aee 9e3c ed1d cf3c 7db4 153b
00000050: 07b7 013d ab6e 8a3b 6e75 41bd 01c8 3d3d
00000060: 9352 bf3c 5f51 46bb ea9c 82bc bd93 1fbc
00000070: a5b1 f2bb bfde 24bd c125 db3c 9c04 973b
00000080: ddaf 863d 77f7 5e3d ae49 8abb 784c b63c
00000090: 8304 2b3c 63f8 90ba 3a5b 6b3c e79f b13c
000000a0: 1a67 bf3c 90e4 033d 1287 1e3d b4c0 efbc
000000b0: 394e a33c a7da c33c a082 b63c 349f 0ebb
000000c0: 6dcd debb 930d 143d 406b 2dbc 516f b23b
000000d0: 181c 073d 2740 09bc 119f 743c ec08 cc3c
000000e0: 6f89 213c b89f 123d 3812 393d 135c e8ba
000000f0: 59b7 8d3b b80f 86bb 2f2a 553c 40cd 3cbd
00000100: e4d7 f63b 4a95 9f3c 6448 9d3c 5ad0 7abc
00000110: a720 a03c e280 64bb d467 cf3c 49f1 95bc
00000120: d660 d43c 4cd1 42bc 4d2c df39 e87a 443c
00000130: 78be 20bc 0695 a5bc c8c6 1abc ece1 7a3c
00000140: 2fec 3cbd 31c6 613b 63fe 0dbc ea13 57bc
00000150: beef 503c 29bd 513c 58bb bd3b 12f6 ed3c
00000160: 7fee 393c 95a0 ad39 74aa 46bc 1a47 a83c
00000170: 5d80 2fbb 34cd 343b 2bea d2b9 7bef cc3c
00000180: 040d eebb b759 37ba f1b6 b8bb e072 8bbc
0.0124139525 -0.005750774 0.002676591 0.009247736 0.007287064 -0.021500958 -0.0063414015 -0.010469955
-0.017056733 -0.01827414 0.005016162 -0.020103646 0.022879016 0.003787358 0.020417698 0.01913065
0.008971993 0.019400883 0.025282824 0.0022843175 0.03166869 0.0042246184 -0.04723113 0.046333317
0.023354804 -0.0030260903 -0.015943963 -0.009739813 -0.007406431 -0.04025149 0.0267514 0.004608704
0.06576512 0.05443522 -0.004220209 0.02225326 0.010438087 -0.0011060353 0.014365012 0.021682693
0.023364592 0.032200396 0.03870303 -0.029266693 0.01993476 0.023907972 0.022279084 -0.0021762373
-0.006799391 0.036145758 -0.010584652 0.005445399 0.032985777 -0.0083771115 0.0149305025 0.024906598
0.009859427 0.03579685 0.04518339 -0.0017727636 0.0043248353 -0.0040912293 0.013010546 -0.04609418
0.0075330604 0.019480366 0.019199558 -0.015308464 0.01954682 -0.003486686 0.025318064 -0.01830353
0.025925081 -0.011890721 0.0004256688 0.011992194 -0.009811036 -0.020212661 -0.009446807 0.015312653
-0.04612368 0.0034450407 -0.008666608 -0.0131273065 0.0127524715 0.012801447 0.0057901554 0.029048
0.011348366 0.00033116774 -0.0121256 0.020541716 -0.0026779391 0.002758813 -0.0004022879 0.025016537
-0.007264735 -0.00069942645 -0.0056370427 -0.01702255

weight f4 [100, 100]
00000000: 61cd ea3b c693 4cbd 9ee2 e43b 03a8 903b
00000010: 5555 bd3a 039f 1abd a854 12bd ce93 7c3c
00000020: b2f5 83bd 8b8d e33c 8665 aabc 8a79 573d
00000030: b4f1 22bc d238 2abd aee7 6a3d 579c c33c
00000040: b646 b6bc 84ab 963c d854 4a3d 3ee8 34bd
00000050: 0003 ebbb 8cf4 09bd f738 6a3d e411 113b
00000060: b2f0 adbd 686d 6b3d e700 8cbd 7ced 3cbd
00000070: 6c24 25bd e868 26bd eff0 8fbd 0017 17bd
00000080: 623d 21bd 9567 a2bd 9348 28be e956 86bc
00000090: e115 2e3c 2132 febc 0eae 483c ff06 a13d
000000a0: a54b cc3c 4485 81bc 9cbf a0bc 8b02 6f3a
000000b0: 10ce 8bbd 6510 9fbc 3eea 893d 91e2 d9b9
000000c0: 30d6 6cbd aed5 95bc a597 ccbd 6e43 c33c
000000d0: 1492 0ebd 81dc 193c 84b0 24bd f058 db3c
000000e0: 8be6 3dbd 9978 1d3d cf1f d2bd 6f10 44bd
000000f0: a8f5 253d b7fc 14be 75e9 abbd d420 233d
00000100: 38b1 76bd 81e7 f53c 4554 6cbd af15 be3c
00000110: bec9 e73c c7c4 cbbc c801 72bd 730f 253d
00000120: 7a06 0abd 7f8d 15bd 99a1 66bd e478 83bd
00000130: 88cf 0e3d 0318 97bd 8e9e 813b 1ff6 67bd
00000140: bb5b a5bd 66e6 b9bd 0175 31bd d65e c43c
00000150: ced6 3a3d c683 bc3c 9e56 263d 01a9 213c
00000160: fae8 d53c 9312 253a 37f4 81bd ebf4 46bb
00000170: 4a05 323b aee8 8fbd f231 863c 6933 aa39
00000180: 6338 1039 356d 45bd 624f cbbc 4275 e2bc
00000190: ae45 e3bc 48e8 473d 292d 20bd c445 cc3c
000001a0: 6452 afbd 872f e0bc af99 e9bc b499 96bd
000001b0: 27b4 f5bb 0c5e af3d 8a49 513d fa6e c6bd
000001c0: b8f2 893c 152e efba 8e18 f0bd defa 2e3d
000001d0: ba66 8e3c d69a 29ba 11ca f93c c582 9abd
000001e0: fdac a1bd 5836 503d a64c 2e3d a049 a43d
000001f0: 1ad3 18be 9c40 8a3b 39fc 8abd 204f 16bd
00000200: 044e 98bd cb1c dc3c 6ca9 663a c5df b73c
00000210: 5c59 4c3d ebb9 233d 1ead 94bd 0e27 1a3d
00000220: 707d b8bd 0b3e 65bd edb9 9d3d b42b 873b
00000230: e98b 113c e226 f5bd cad5 7c38 72b1 2ebd
00000240: 1071 f53d 90d6 d43c 1598 a93c 2d5e ac3d
00000250: d8f7 8bbd 56e8 51bc d065 b2bb 7a77 973b
00000260: 78cc 43bc f779 91bb fe63 56bc 2b87 003d
00000270: ad77 8abd cc9e 8e3c 7804 7bbd 6bc7 073d
00000280: 3a95 eebb 04bf 393d 2b40 8bbc 5281 953c
00000290: c1bb 183d aaf8 9d3d cc89 c43b 36a3 b7bb
000002a0: 60ca ca3c 033a 2bbd 5238 523c 9564 2abd
000002b0: 320d 083c 1890 cbbc b9cf 6fbc 4ab7 41bb
000002c0: 0e1b 70bd 9367 71bd f24e 7d3d d47f d5bd
000002d0: 1eac a93b ad53 3ebd e2fe a4bc 6598 5abd
000002e0: bef4 34bc 3599 6d3d 2867 b93d 6349 403d
000002f0: ecb2 4fbc f836 4bb9 6438 243d f4cd 213d
00000300: 0de5 4bbd ec3a a4bd 5c01 9e3d 4c52 52bd
00000310: b277 32bc d170 cabc 3c03 513d 93d0 e8bc
00000320: b81a 4fbd 965d 293c 12ef 23be b86d 79bc
00000330: a542 743d ee15 15bd a213 dfbc 0eb5 73bd
00000340: 1d12 bf3d f360 c03c 0c1b da3b 1615 aebd
00000350: c3fe 2d3d f3e8 2fbc 12af 33bc e93b bdbc
00000360: 763e 01be 92e1 cf3d 290e 0a3d 04af ac3c
00000370: 34f8 c5bd 6160 313d 5a9b 8dbd c9a1 40bc
00000380: a748 133e 3289 a6bd 13e8 023e c7e8 7b3d
00000390: 0385 033e 9209 78be 8406 9abc 1780 303c
000003a0: 2bf4 643d e51b 213d d81a 973d ea25 42be
000003b0: 2b0e 21bc dc70 203d 6b15 053d ee9b 0e3d
000003c0: 2e17 87bd 7aa2 ce3d 9458 d2bd e9e9 963b
000003d0: 26f9 21be e4cb 7e3d 6a28 6a3d b6a9 19bd
000003e0: bb5e 10be 6f04 9cbd 498c 633d b650 afbc
000003f0: 21ba 20bd c873 c4bc 8906 44bd c38e 8ebc
0.0071655964 -0.049945615 0.0069850227 0.00441456 0.0014444987 -0.0377493 -0.035725266 0.015416099
-0.06443347 0.027777454 -0.020800363 0.052606143 -0.009945322 -0.041558094 0.057349853 0.02387826
-0.022250514 0.018392332 0.04939732 -0.044166796 -0.0071719885 -0.033680484 0.057183232 0.0022135908
-0.084931746 0.057477385 -0.068361096 -0.04612492 -0.040317938 -0.04062739 -0.07028376 -0.03688717
-0.03936518 -0.07929913 -0.16433935 -0.016398864 0.0106253335 -0.031029763 0.012248529 0.078626625
0.024938414 -0.015810616 -0.019622616 0.00091175054 -0.06826413 -0.019416997 0.06734131 -0.0004155827
-0.057821453 -0.018290367 -0.099898614 0.023835864 -0.03480728 0.009390951 -0.0402074 0.026775807
-0.04636244 0.03844509 -0.10259973 -0.047867235 0.04051748 -0.14549528 -0.08394138 0.03982623
-0.060227603 0.030017616 -0.057697553 0.023203699 0.02829444 -0.024874104 -0.05908373 0.040297937
-0.033697583 -0.036511894 -0.056306455 -0.064195424 0.034865886 -0.07377627 0.003955669 -0.056631204
-0.08074137 -0.09077148 -0.043324474 0.023971003 0.04561501 0.023012053 0.04060995 0.009866954
0.026112068 0.0006297018 -0.063454084 -0.0030358385 0.0027163797 -0.07026802 0.016381238 0.0003246323
0.00013753916 -0.04819985 -0.024818126 -0.027643804 -0.027743187 0.048805505 -0.039105568 0.02493561
-0.08560637 -0.027366413 -0.028515665 -0.07353535 -0.0074982825 0.0856286 0.051095523 -0.09689136
0.01683937 -0.0018247986 -0.117234334 0.042719714 0.017382968 -0.0006469911 0.03049186 -0.075444736
-0.07894323 0.050833076 0.042553566 0.08021855 -0.14924279 0.004219128 -0.06786389 -0.036696553
-0.07436755 0.026869198 0.00087990495 0.022445569 0.049889907 0.039972227 -0.07259582 0.0376349
-0.090083 -0.055967372 0.07701478 0.004125083 0.008883455 -0.11970307 6.028059e-05 -0.042649694
0.119844556 0.025981218 0.020702401 0.084164 -0.06834382 -0.012811741 -0.005444266 0.004622397
-0.011950605 -0.004439588 -0.013085363 0.031378906 -0.067611076 0.017409705 -0.06128356 0.033149164
-0.007280973 0.045348182 -0.016998371 0.018250141 0.03728843 0.077134445 0.005997872 -0.005604173
0.024754703 -0.04180337 0.012830811 -0.04159983 0.008303927 -0.024848983 -0.014636927 -0.0029558712
-0.05861955 -0.058936667 0.061842866 -0.10424772 0.0051779887 -0.04646652 -0.020141069 -0.05336799
-0.011044679 0.058007438 0.090528786 0.046944987 -0.012676936 -0.00019380066 0.04009284 0.039503053
-0.049778987 -0.08019051 0.07715103 -0.051348016 -0.010892795 -0.024711998 0.051028475 -0.028419768
-0.05056259 0.010337254 -0.16009167 -0.015223913 0.05963387 -0.036397867 -0.027231041 -0.05949884
0.09329627 0.023483729 0.0066560563 -0.085001156 0.042479288 -0.010736692 -0.010967033 -0.023099856
-0.12621483 0.10150446 0.03370491 0.021079548 -0.096664816 0.043304805 -0.069143966 -0.011757323
0.14383183 -0.08131637 0.12783842 0.06150129 0.12843709 -0.24222401 -0.018801935 0.0107727265
0.05589692 0.039333243 0.07378167 -0.18959776 -0.009830038 0.03917013 0.03249113 0.034816675
-0.06596218 0.10089584 -0.10270801 0.004605521 -0.15817699 0.062206164 0.057167448 -0.037515365
-0.14098637 -0.07618033 0.05555371 -0.02140079 -0.039240006 -0.02398099 -0.047857795 -0.017402058

bias f4 [100]
00000000: ce52 63bb 9eec eb3b ac67 c9ba 1a68 933c
00000010: 05b7 213c 5f41 79bc 6218 783c ab19 293b
00000020: 8086 633c 7aa4 a0bc 563c 9f3c 4506 ad3c
00000030: e9d9 7e3a fbbf 01ba 972f 6b3c ef7a 9a3c
00000040: 6447 06bb d514 013a 9c7a 73bc 26b8 18bc
00000050: 82c9 523c 87eb 9eba 5857 0b3c 5332 a4bc
00000060: 3152 b3b9 2c72 26bc 9f69 ecbc f907 c43c
00000070: a13f d23c 5919 04bb 1fb2 c03a 7752 5ebc
00000080: 53ec 8e3b 0b60 713a 0538 963c ccae 48bc
00000090: e324 1c3c e6df 98bb a826 193c 152c e03c
000000a0: a213 053c e9ce a63c b393 3f3d 19bb 20bc
000000b0: 8615 e6bb caae afbb 4646 bc3b 091f 913c
000000c0: 406e ae3c 8d8c ba3b 9b14 fc3b ce39 d23b
000000d0: 8a30 bb3b 93b8 44bb 2e81 433c e3d3 633c
000000e0: bfa9 3c3c 7d9e 3e3c e628 11b9 bc6f 96bc
000000f0: ab74 8fbb 8e26 0f3a a3de ecbc 20e7 7a3b
00000100: e219 fb3c 36f6 1dbb ce1d 223c 059a f0bb
00000110: 3434 d23a 8ff2 8c3c 6e0a 553c 74f6 ffbb
00000120: b80d 083d f971 5dbc bd8f 133c 5640 023d
00000130: 1297 b439 c098 3b3c 62b4 c83c 2e5c a3bc
00000140: ef2a 603c 4db7 553c 382a 41bc 734d 7e3c
00000150: 77e5 c2bb a292 1b3c 988f d93c 26d0 f9bb
00000160: aa6a 1cbb 1f94 543c d21f 333c edeb 90bc
00000170: e44c 9bbc ec4a ff3c 68f3 e63b 110b 3a3c
00000180: d691 713c f660 73bb 0fe0 343c ed67 91bc
-0.0034686807 0.007199838 -0.001536598 0.017993975 0.009870295 -0.01521334 0.015142532 0.0025802653
0.013887048 -0.019609679 0.01943795 0.021121154 0.0009721802 -0.0004949567 0.014354608 0.018857447
-0.002048933 0.00049240637 -0.014860775 -0.009321248 0.012865426 -0.0012124636 0.008504711 -0.020043528
-0.00034202778 -0.010159057 -0.028858958 0.023929583 0.025665106 -0.002015671 0.0014701522 -0.013569466
0.004361668 0.0009207732 0.01833726 -0.012248706 0.009530279 -0.0046653626 0.009347595 0.02736477
0.008122357 0.020362334 0.046771716 -0.009810233 -0.0070216088 -0.0053614127 0.005745682 0.017714994
0.021292806 0.0056930245 0.007692886 0.0064155823 0.0057125734 -0.0030017241 0.011932654 0.013905498
0.01151508 0.011634466 -0.00013843513 -0.018363826 -0.0043779216 0.0005460762 -0.028914755 0.0038284734
0.03065199 -0.0024103052 0.009894801 -0.0073425793 0.0016037286 0.017205505 0.013002975 -0.007811362
0.03321621 -0.013515943 0.009006438 0.031799637 0.00034444832 0.011449993 0.024500076 -0.019941416
0.013682111 0.013044191 -0.011789851 0.015521395 -0.0059477645 0.009495409 0.026557729 -0.00762369
-0.0023867288 0.012974768 0.0109328795 -0.017690623 -0.018957563 0.031163655 0.0070480593 0.0113551775
0.014744243 -0.003713665 0.011039748 -0.017749751

weight f4 [100, 100]
00000000: a2be 4d3d 592a 663d ed3b f63c 027d 4e3d
00000010: a6ba 6b3d 1fbc b53c fe00 b8bc 3f76 493d
00000020: b5df 20bd 0fba 593d 09da 0e3d 08ed 51bd
00000030: 7253 87bd d7bd c23d a5f9 543d b2ba 023e
00000040: 8324 2c3d fda8 0a3d 5477 6fbd 47fc 60bd
00000050: 05af 98bd e0d4 dbbc c6cd c8bd 5a6f 67bd
00000060: 7832 f83a 8ea1 45bd 323f 6c3d a041 643c
00000070: 591f 353d 34eb e73c e335 ed3c 7f1c 5bbd
00000080: c4f5 4e3c 27d8 4d3d 9abb 9f3c a0c3 b3bd
00000090: 9aec 773d f3e9 25bd b995 b23d c826 02bd
000000a0: eec3 533e 9242 05bc 15f7 bdbc 9221 a9bc
000000b0: 3d4f 5dbc 88f1 e43b bcd7 80bc 6850 be3d
000000c0: b646 8c3d d31a 423d dbf5 123d cfad e8bb
000000d0: fa1d 30bc 0169 dcbd 5489 89bd fa06 553b
000000e0: 2732 58bd 440f 173d 57e0 fd3d ab6a 2c3c
000000f0: fa42 71bc 8be5 a6bd b3dd 85bd 1c33 d03d
00000100: 4741 2bbd 989f 1e3d 8c3a 4d3d 33b8 fe3c
00000110: d17e 1bbd ff49 e8bc 1f29 18bd 5791 aabb
00000120: f4ab 143d 9faf 8fbd 2cab 75bb e308 bd3b
00000130: fc2e d23d 36a3 7abd 4480 afbd d65b f2bd
00000140: dafe d13d 60b8 8fbd 345a 493d 6ee5 123d
00000150: 60f6 6f3c 3475 7cbd 228a 2f3c a5e5 903c
00000160: 3310 60bd 5af9 8abd 3f4a b0bd 8687 98bc
00000170: 642f 54bd 1085 0d3d 4e4d a2bd c4bb da3d
00000180: 41c6 353d b5b2 d9bd ea8a b9ba 975b d6bd
00000190: b97e 04bb e2b9 c63d 20a6 5d3b c2f2 a13d
000001a0: 3a11 903d c55c 583c 1082 32bc f92d 223d
000001b0: 58f9 e83c 7cf7 183d 6c8a f93c 683a 573d
000001c0: a442 003d 0049 983d 36c1 09bb c85b 36bc
000001d0: f234 b1bd e8d3 27bd ef89 303b 5a1b 073d
000001e0: 2694 9fbd 0b10 443d a043 e93d 73e3 093b
000001f0: 3af8 ff3c b9c5 f0ba dbd8 cfbc 8337 993c
00000200: 523b 41bd 15bf 29bd 46de 9abc ad7d 69bd
00000210: e90b 953c e867 e63c bd97 b93c 5254 dc3d
00000220: ba5e 373d 5ea5 ab3b 9a67 2abc e954 833d
00000230: f340 f2bc dd62 adbd 3ca2 d43c 4645 54bd
00000240: f68e b13c 391b 193d ba72 0a3e 3c12 363c
00000250: 031d d33d e3b7 e3bd aea9 283d 87ac 58bd
00000260: 6334 903c a1d1 8d3d e17b 58bd fd12 0dbc
00000270: eb1d f03a ab58 95bd 9bbf cc3d 1f9a 2e3e
00000280: 2c7a 69bc 8708 363d 9c7f 91bd deca 973c
00000290: e8da ba3c a784 2a3b 46e0 053e 866c b63c
000002a0: 7580 c0bc dc68 62bd 612a b5ba f5b2 b93c
000002b0: 0bb3 efbc b272 bebb 0454 1b3e 3a41 7a3d
000002c0: fdcc e33d 5b73 06bc 500c 88bd 9029 02be
000002d0: fbe8 0b3c fb6a 56bd 5e9a 503d a2d2 c4bc
000002e0: 9744 903b 69f0 203d 8941 82bc 9d0e bdbc
000002f0: fe95 0dbd 0512 f9bc 7155 87bd 9fb9 93bd
00000300: 5920 1c3d 148f 183c 04c9 2d3d c497 f23d
00000310: 3133 9e3d aa72 87bd 91f7 a83c 7049 fcbc
00000320: dc25 243d d4d5 a1bc 1dff 0abd eaba 05bd
00000330: c5a9 f5bc d9d8 48bd ee5f 86bd 5ee5 113e
00000340: 62b5 8f3c ca72 e4bd 8029 c9bd 8d58 ecbd
00000350: f624 e6bc 299f 62bd b575 943d a004 20bd
00000360: 9e7f 9e3c c072 bb3d 4c48 18be 0691 2e3d
00000370: 92f3 a8bd fa95 1bbc 1144 933d 9751 cc3c
00000380: 1cd9 23be a622 e13d bae6 5abd 495a d23a
00000390: 9904 66bd 0447 73bc 9e56 723d aab6 2b3d
000003a0: e3a2 d1bc 9c06 b73c 3201 7f3d 3155 ed3d
000003b0: 1ace 5cbd 4964 aebd cfff 2dbe 4839 873b
000003c0: 79c6 f23c 044e 4cbd a103 03bd 9744 07b9
000003d0: bcc6 f03d 1132 89bb 471e 963c b90d 623d
000003e0: c71d f83c bbae ff3d dcc5 2fbd 7178 313d
000003f0: 0209 6e3d 19a6 843d 8ff9 5e3c a186 49bd
0.05023063 0.05619273 0.030057872 0.050412185 0.05755105 0.02218443 -0.02246141 0.049185034
-0.039275844 0.053155955 0.034875903 -0.05125144 -0.06607713 0.09508865 0.051995892 0.12766531
0.042027008 0.033852566 -0.05846341 -0.05492809 -0.07455257 -0.026834905 -0.09804873 -0.056502678
0.0018935939 -0.048249774 0.057677455 0.013931662 0.04421935 0.028310396 0.02895636 -0.053493973
0.012631837 0.050254967 0.019498635 -0.08777547 0.060528375 -0.040506314 0.087199636 -0.031775266
0.2068021 -0.008133547 -0.023189107 -0.02064589 -0.013507661 0.0069868006 -0.01572787 0.0929268
0.068494245 0.047388863 0.035878997 -0.0071007977 -0.0107493345 -0.107622154 -0.067156464 0.003250538
-0.052782204 0.036879793 0.12396305 0.0105234785 -0.014725441 -0.081492506 -0.065364264 0.10165998
-0.0418103 0.03872642 0.050104663 0.031093692 -0.03796274 -0.028355597 -0.03714859 -0.005205314
0.0362968 -0.07015919 -0.003748606 0.0057688816 0.10262868 -0.061190806 -0.085693866 -0.118339226
0.10253687 -0.070175886 0.04915829 0.035863332 0.014646143 -0.06163521 0.010714086 0.017687628
-0.05470295 -0.06785841 -0.08607911 -0.01861931 -0.051803008 0.034550726 -0.07924901 0.10680345
0.044378523 -0.10629789 -0.001415578 -0.10466688 -0.0020217134 0.09703423 0.0033820942 0.079076305
0.07034536 0.013205712 -0.010895267 0.039594624 0.028439209 0.037345394 0.030461513 0.052545935
0.031313553 0.07435799 -0.0021019704 -0.011130281 -0.08652677 -0.040973574 0.0026937684 0.03298507
-0.07791929 0.047866862 0.113898516 0.0021040111 0.031246293 -0.0018369473 -0.02537196 0.018703228
-0.047175713 -0.041441996 -0.018904816 -0.05700462 0.018194156 0.028125718 0.022655362 0.1075827
0.044768073 0.005238219 -0.010400677 0.0641268 -0.029571986 -0.08466122 0.025956266 -0.051823877
0.021674614 0.037379477 0.13520327 0.011112746 0.10308268 -0.11119058 0.041177444 -0.05289891
0.017603105 0.06924749 -0.052852515 -0.008610484 0.0018319463 -0.07292303 0.09997483 0.1705098
-0.014250319 0.044441726 -0.07104418 0.018529352 0.02280946 0.0026019008 0.13073835 0.022268545
-0.023498753 -0.055275783 -0.0013821834 0.022668341 -0.029260179 -0.0058120126 0.15168768 0.06109736
0.11123083 -0.008206214 -0.066429734 -0.12711167 0.008539434 -0.05234812 0.050928466 -0.024026219
0.004402708 0.039291773 -0.01590039 -0.023078257 -0.03456687 -0.0304041 -0.066080935 -0.07213139
0.038116787 0.009311456 0.04242803 0.11845353 0.07724608 -0.06613667 0.020625861 -0.030796736
0.040075168 -0.019755282 -0.0339347 -0.03264896 -0.029988179 -0.049034927 -0.06561266 0.14247653
0.017542545 -0.11154707 -0.098223686 -0.11540327 -0.028093796 -0.05532757 0.07249013 -0.03906691
0.019347962 0.09152746 -0.14871329 0.042618774 -0.08249582 -0.009496206 0.07190717 0.024941249
-0.1600079 0.10992937 -0.053442694 0.0016048636 -0.05615673 -0.014848474 0.059164636 0.04192225
-0.025590366 0.022342019 0.062257 0.115885146 -0.05390749 -0.085152216 -0.16992114 0.0041267015
0.029635655 -0.04987909 -0.031985883 -0.00012900155 0.117566556 -0.0041868766 0.018324984 0.05518887
0.030287636 0.12484499 -0.042913303 0.043327753 0.05811406 0.06476993 0.013609304 -0.049200658
