velocity_complex.pth (torch, 490759 bytes, 9 tensors)

weight f4 [200, 2]
000000 4f 5b f5 bf ea de 7e c0 a4 8a 18 c0 0f c5 55 c0
       -1.916849 -3.9823556 -2.383462 -3.3401525
000010 4a e1 34 3f 01 3a bd 3f 46 89 0c c0 c2 91 9c c0
       0.70656264 1.4783326 -2.1958785 -4.8927927
000020 87 42 ee bf 4d a3 84 c0 fd e5 0c c0 e6 90 0e c0
       -1.8614053 -4.144934 -2.2015374 -2.227594
000030 5a 5f b3 3f f1 fc 38 40 c1 d0 e5 bf e0 91 51 c0
       1.4013474 2.8904383 -1.7954332 -3.2745285
000040 36 42 0f c0 09 7e 17 c0 e3 0c fe bf 20 fa 99 c0
       -2.2384162 -2.3670676 -1.9847683 -4.811783
000050 96 f5 e4 bf f4 7f 64 c0 34 7c 1c c0 c2 e8 74 c0
       -1.7887447 -3.5703096 -2.4450808 -3.8267064
000060 88 11 e4 bf 51 6e f2 3e f5 78 1a c0 17 9b 80 c0
       -1.781785 0.4734979 -2.4136326 -4.018932
000070 c1 4d e8 bf cd 9d 2b c0 3f 17 e5 bf ca 94 54 c0
       -1.8148729 -2.6815064 -1.7897719 -3.3215814
000080 9c e2 ef bf 43 6e 9f c0 36 27 ee bf f4 82 94 c0
       -1.8741031 -4.9822097 -1.8605716 -4.6409855
000090 f6 48 e4 bf 83 61 25 c0 cc 37 f2 bf b6 7c 3c c0
       -1.7834766 -2.5840766 -1.8923278 -2.9451118
0000a0 60 cb fc bf 99 7c 98 c0 de b7 ea bf 76 4b 33 c0
       -1.9749565 -4.7652097 -1.8337362 -2.8014808
0000b0 e4 f5 e9 bf 6c 62 0d c0 7f 33 12 c0 3b 57 8c c0
       -1.8278165 -2.2091322 -2.284393 -4.3856483
0000c0 7b a9 e0 bf 16 78 72 c0 f2 2b 1a c0 4d 45 67 c0
       -1.7551721 -3.7885795 -2.4089322 -3.6136048
0000d0 b2 6f 27 c0 3c 1a 30 c0 e2 15 09 c0 bd 5f 77 c0
       -2.6161923 -2.7516012 -2.1419606 -3.8652184
0000e0 67 55 e5 bf 22 5f 5c c0 dd c7 e4 bf 68 08 7d c0
       -1.7916688 -3.4433064 -1.7873493 -3.953638
0000f0 dd b7 10 c0 0a 7c 44 c0 09 f3 bc 3f e4 b3 39 3f
       -2.2612221 -3.0700707 1.4761668 0.72540116
000100 19 b7 e7 bf fe a9 51 c0 65 3f e2 bf 26 5e 68 c0
       -1.8102752 -3.2760005 -1.7675596 -3.6307464
000110 36 18 eb bf 83 33 0a c0 36 e2 e5 bf 71 93 33 c0
       -1.8366764 -2.159394 -1.7959659 -2.805874
000120 be 85 e6 bf e3 bc 0a c0 08 44 14 c0 a7 93 28 c0
       -1.8009565 -2.1677787 -2.3166523 -2.634012
000130 45 44 e5 bf 8e 4c 5b c0 1e 45 e6 bf 4b 5c 53 c0
       -1.7911459 -3.4265475 -1.7989843 -3.302508
000140 70 dd 04 c0 54 64 1f c0 92 15 0f c0 60 de 62 c0
       -2.0760155 -2.4904985 -2.2356915 -3.5448227
000150 6e 53 14 c0 c0 0a 69 c0 78 b0 d9 bf d2 8b 8c be
       -2.3175921 -3.6412811 -1.7006979 -0.27450424
000160 36 72 13 c0 92 2a a8 c0 7f 9f 28 40 91 52 d6 be
       -2.303846 -5.2551966 2.6347349 -0.41859868
000170 26 a7 03 c0 6f d3 7f c0 b8 9c e6 bf 16 fd 17 c0
       -2.057077 -3.99728 -1.8016577 -2.3748221
000180 3a a5 ea bf fc d5 1f c0 5d b1 ed bf b4 e8 2b c0
       -1.8331673 -2.4974356 -1.8569752 -2.686078
000190 90 7a 0f c0 ba 2e 96 c0 56 ec 1b c0 30 d4 72 c0
       -2.2418556 -4.693204 -2.4362998 -3.794201
0001a0 bf b0 03 c0 87 d4 af c0 0c 97 ea bf 88 1c 3c c0
       -2.0576627 -5.4946933 -1.8327346 -2.9392414
0001b0 9b 24 fc bf 3c c0 66 bf e3 1f e7 bf 47 cf 15 c0
       -1.9698671 -0.90137076 -1.8056606 -2.3407762
0001c0 e8 42 0f c0 3f 41 45 c0 2f 18 dc 3f 7a 47 3d 40
       -2.2384586 -3.0821073 1.719488 2.9574876
0001d0 e5 9d 19 c0 1b 83 56 c0 d7 a7 e4 bf d2 00 70 c0
       -2.400262 -3.351752 -1.7863721 -3.75005
0001e0 0b b9 ef bf e3 d2 64 c0 7e b2 e8 bf 0a 90 38 c0
       -1.8728346 -3.5753715 -1.8179471 -2.8837914
0001f0 fd 26 d5 bf b7 4f 38 3f 1d 6b 25 c0 c4 58 15 c0
       -1.6652523 0.71996635 -2.5846627 -2.3335428
000200 ae fd e8 bf f5 c8 4b c0 3e b0 10 c0 c5 1b 9c c0
       -1.8202417 -3.1841404 -2.260757 -4.87839
000210 43 f4 05 c0 5b 3f 6e c0 0b f3 e5 bf 74 f0 da bf
       -2.0930336 -3.722617 -1.7964796 -1.710463
000220 81 8e 03 c0 46 93 4f bf c7 58 6e c0 75 f3 44 40
       -2.0555727 -0.81084096 -3.7241685 3.0773594
000230 75 e7 e6 bf 24 13 f2 bf a7 dd 00 3d 79 45 15 40
       -1.8039385 -1.8912091 0.031461384 2.3323653
000240 3f 06 1b c0 f9 c8 83 c0 5f 25 ec bf 3c 14 39 c0
       -2.4222562 -4.118283 -1.8448905 -2.89186
000250 2f 14 e7 bf 9c 5b f2 bf 04 06 16 c0 9b 4c a3 c0
       -1.8053035 -1.8934207 -2.3441172 -5.1031013
000260 4e b4 18 c0 2d 59 45 c0 04 3f 0e c0 82 7e 11 c0
       -2.386005 -3.0835679 -2.2225962 -2.2733464
000270 43 5e 9c bf 14 c3 d2 c0 c4 d7 f7 bf ed 6e 78 c0
       -1.2216266 -6.5863132 -1.9362721 -3.8817704
000280 5d 9e ca 40 a1 38 38 be 57 46 1d c0 2f d0 83 c0
       6.3318315 -0.17990352 -2.4574182 -4.119163
000290 39 69 e7 bf 22 e8 25 c0 9c 82 0f c0 02 9a 5d c0
       -1.8078986 -2.5922933 -2.2423468 -3.462525
0002a0 6f 11 f2 bf 36 9b a0 c0 83 d7 0f c0 8e 61 13 c0
       -1.891157 -5.0189466 -2.2475288 -2.3028293
0002b0 72 89 bf bf 19 77 92 bd ff 68 07 c0 d1 77 1d c0
       -1.496382 -0.07151622 -2.1157835 -2.460438
0002c0 3b 27 08 c0 60 8f a6 c0 cd ed ea bf 54 90 49 c0
       -2.1273944 -5.205002 -1.8353821 -3.149434
0002d0 54 22 e4 bf ab eb 63 c0 27 b0 07 c0 fa aa 7b c0
       -1.7822976 -3.561259 -2.1201265 -3.9323106
0002e0 e3 49 4e 3e 7b 5a 1c 40 1f e4 11 c0 b9 3f 1d c0
       0.20145373 2.4430225 -2.2795484 -2.4570143
0002f0 bc 7d fb bf 55 cb 75 c0 17 25 e0 bf 76 3e 7b c0
       -1.9647746 -3.8405354 -1.7511319 -3.9256873
000300 9f 6d fd bf 5c 04 ed bf f6 78 16 c0 7c d2 49 c0
       -1.9799079 -1.8516955 -2.3511329 -3.153472
000310 9f a9 fb bf f0 7a 8e c0 83 2e f4 bf 93 17 56 c0
       -1.9661139 -4.452507 -1.9076694 -3.3451889
000320 17 97 19 c0 61 0b 8e c0 12 2f 13 c0 2b d7 a2 c0
       -2.3998468 -4.438889 -2.299748 -5.0887656
000330 c2 e6 f3 bf fc 3d ae c0 6d e7 15 c0 e2 45 e1 bf
       -1.9054797 -5.4450665 -2.34225 -1.7599452
000340 29 b8 14 c0 d6 95 92 c0 aa 9f 0a c0 09 bb a4 bf
       -2.3237402 -4.5807905 -2.1659951 -1.2869579
000350 58 f9 e4 bf 9c cf 41 c0 c5 4d 0f c0 da c5 9c c0
       -1.7888594 -3.0282965 -2.2391217 -4.899152
000360 d8 90 05 c0 c6 4a 88 c0 41 7f 0c c0 a1 bb 91 c0
       -2.0869656 -4.2591276 -2.195267 -4.554154
000370 01 eb 18 40 c0 08 b7 be 1d 30 11 c0 ff 5c 9b c0
       2.3893435 -0.35748863 -2.2685616 -4.855102
000380 61 1f 0c 3d 12 97 bb 40 14 e9 17 c0 ce a5 34 c0
       0.034209613 5.862191 -2.373601 -2.82262
000390 37 c5 12 c0 15 91 51 c0 b0 3c 07 c0 d6 7d 8b c0
       -2.293287 -3.27448 -2.113079 -4.359111
0003a0 85 5f e0 bf f4 e0 01 c0 14 14 ff bf 64 a5 5a c0
       -1.752915 -2.029355 -1.9928002 -3.4163446
0003b0 9d 4e 09 c0 88 48 51 bb 4d 80 ed bf 11 dd 5f c0
       -2.1454232 -0.00319341 -1.8554779 -3.4978678
0003c0 88 79 09 c0 2a 4a ad c0 9f 08 04 c0 ab 9e 8f c0
       -2.1480427 -5.415303 -2.0630262 -4.4881186
0003d0 41 80 09 c0 0a b3 a9 c0 3e c4 1a c0 30 5f 7b c0
       -2.148453 -5.3031054 -2.4182277 -3.9276848
0003e0 39 d5 12 c0 e2 06 18 c0 ce f4 f4 bf 26 d8 85 c0
       -2.294264 -2.37542 -1.9137208 -4.1826353
0003f0 f1 3a 12 c0 d6 be a3 c0 48 b0 f4 bf f4 eb 9a c0
       -2.2848475 -5.1170454 -1.9116297 -4.841303

bias f4 [200]
000000 c8 78 10 40 e2 61 54 3f 01 f8 c5 be 33 60 d9 3f
       2.257372 0.8296186 -0.38665774 1.6982483
000010 62 34 39 40 47 c4 d0 3e dc 37 1f 40 a5 d4 52 40
       2.8938222 0.40774748 2.4877844 3.2942288
000020 ac 20 6f be f2 cf 11 40 58 f3 51 40 c7 55 60 3f
       -0.23352307 2.278317 3.2804775 0.87630886
000030 24 f1 d3 3e c3 85 35 3f d4 3b 2d 40 8f 0f 4c 40
       0.41394913 0.7090723 2.7067766 3.1884496
000040 e2 79 2c 40 a4 a8 2d 40 5a f8 5e 40 92 a5 41 40
       2.6949391 2.713418 3.4839082 3.0257306
000050 9f 20 30 40 8b e1 46 40 57 17 45 40 b3 19 97 3f
       2.751991 3.107516 3.0795496 1.1804718
000060 63 cc 5a 40 21 9d 04 3f 26 4b 03 c0 cc 65 e2 3f
       3.4187248 0.5180226 -2.0514617 1.7687316
000070 d9 d7 4c 40 22 19 4a 40 02 ea d9 bf 2b f2 22 3f
       3.2006743 3.157784 -1.7024539 0.6365077
000080 ed 4a 52 40 8d 8c 57 40 ee ad 3d 40 fb c9 69 40
       3.285823 3.3679535 2.9637408 3.652953
000090 8f 5c 06 40 b5 7e 6b bf 42 a4 5e 40 c1 7e 48 40
       2.0993993 -0.91990215 3.4787755 3.1327364
0000a0 dd 50 8f 3f 07 8c 9e be c8 23 46 3f 83 c0 ca 3f
       1.1196553 -0.30966207 0.7739835 1.584
0000b0 3c 6d b9 3f 64 43 5b 40 b3 14 01 40 54 e9 68 40
       1.4486461 3.4259882 2.0168884 3.6392412
0000c0 f2 a2 50 40 c0 b9 41 40 02 bc ef 3f 79 91 06 3f
       3.2599454 3.0269623 1.872925 0.52565724
0000d0 92 6b 05 40 63 7d 48 40 70 c2 da 3e 7e 5d 46 40
       2.0846906 3.132653 0.4272647 3.0994563
0000e0 1b ca 72 be 0d a2 4b 40 6a 50 27 3f fc b2 50 40
       -0.2370991 3.1817658 0.6535708 3.2609243
0000f0 fb ae 42 40 1b 82 47 40 41 ce 0a 40 7e 68 b7 bf
       3.04193 3.117316 2.1688387 -1.4328763
000100 79 2f 4f 40 93 4c ae 3f d3 85 e1 3f ee db 56 40
       3.2372725 1.3617119 1.7618965 3.3571734
000110 64 d3 56 3f db 5e a1 40 9f 5d 52 40 45 d0 de 3f
       0.83916306 5.042829 3.2869642 1.7407309
000120 ee 33 34 3f a3 9c 37 40 dc 90 56 40 98 1e af 3f
       0.7039174 2.8689353 3.3525915 1.3681211
000130 47 cf 47 3e 09 2d e6 3d 12 43 02 40 ad 99 23 40
       0.19512664 0.112390585 2.0353436 2.5562546
000140 7b d1 1e 40 ae e9 02 3f 54 18 52 40 38 6a c0 3f
       2.4815357 0.51137817 3.2827349 1.5032415
000150 35 09 31 40 25 64 fa 3e f2 fd 21 40 6d ed bb 3f
       2.766187 0.4890453 2.5311246 1.4681832
000160 41 85 fb 3f 7e 84 44 40 9d d9 4f 40 58 7c f7 3f
       1.9650041 3.0705867 3.247657 1.9334822
000170 a9 7e 77 3f 58 99 3c be 33 3d 24 40 b0 a6 42 40
       0.96677643 -0.18417871 2.5662353 3.0414238
000180 95 65 f3 3f 12 79 cc 3e d3 e4 10 40 c3 c9 0e 40
       1.9015375 0.3993612 2.2639663 2.2310646
000190 88 98 64 3f d0 88 b2 3f 4e 5c 1e 40 d8 ab 82 bf
       0.89295244 1.3948002 2.4743838 -1.0208693
0001a0 81 26 8c 3f 80 a4 35 3d 2f e9 52 40 a8 58 cc 3f
       1.094925 0.044346333 3.2954824 1.5964556
0001b0 a5 f4 d4 3f 15 3a b9 3f 88 62 29 40 24 22 a4 3f
       1.663716 1.447085 2.6466389 1.2822919
0001c0 cf a2 10 40 42 46 e0 3e a2 24 5b 3f ab e7 cc 3f
       2.259937 0.43803602 0.8560277 1.60082
0001d0 c2 41 64 40 bf 06 24 40 53 82 bb 3e 62 9b 2e 40
       3.5665135 2.5629117 0.36622867 2.7282338
0001e0 b6 77 dd 3f e9 64 06 40 e1 d0 eb 3f 79 c8 17 3f
       1.7302158 2.099909 1.842312 0.5929027
0001f0 2e 8a cc be e7 76 18 40 78 88 a6 3f fc d6 23 40
       -0.39949173 2.3822572 1.3010397 2.5599966
000200 7c 50 ee 3f 9d ee 5e 3f 9d 57 20 40 a7 35 34 40
       1.8618312 0.87082845 2.5053475 2.8157747
000210 69 1b 90 3e bd 79 03 40 57 9f 34 40 1a 68 46 40
       0.28145912 2.0543053 2.8222253 3.1001039
000220 fa 4a 1a 40 5e 91 52 40 54 b7 68 40 89 c2 3a 40
       2.4108262 3.2901225 3.6361895 2.9181235
000230 87 d3 29 40 a0 d4 52 3f b9 0e 34 40 b4 fc 49 40
       2.6535356 0.8235569 2.8133986 3.1560488
000240 2c ba 06 40 ff 44 9c 3d 99 e8 e4 3f d0 f3 e3 3f
       2.105113 0.076303475 1.7883483 1.7808781
000250 aa bf 2a 40 8b fd 05 40 43 5d 3c bd f1 be 25 3f
       2.6679482 2.0936 -0.04598738 0.6474448
000260 56 57 2e 40 f0 7a 86 40 54 33 5d 40 65 1d 5c 40
       2.7240806 4.202507 3.4562578 3.439294
000270 8a f7 1a 3f a0 eb f4 bf bc 33 46 40 fb 95 f4 bd
       0.60533965 -1.9134407 3.0969076 -0.11942669
000280 76 0b 44 40 53 a1 9e 3f 88 f0 82 3f a6 b1 4f 40
       3.0631995 1.2392982 1.0229654 3.2452178
000290 df cc f5 3f 34 ca 42 40 c3 3a d9 bf c0 51 20 40
       1.9203147 3.0435915 -1.6971058 2.5049896
0002a0 e5 25 2a 3f 13 64 54 3e ca 75 54 40 17 f9 d9 3f
       0.6646407 0.207413 3.3196893 1.7029141
0002b0 72 3e 8d 3f df e5 1a 40 64 66 cc be 47 07 18 3f
       1.1034682 2.4202802 -0.39921868 0.59386104
0002c0 78 cd ca 3f 8d f6 4d 40 77 de 53 40 17 71 0d 40
       1.5843954 3.2181733 3.3104532 2.2100275
0002d0 9b fe 43 40 49 f1 e5 3f 81 bf 14 c0 fd d1 ae 3f
       3.062415 1.7964259 -2.3241885 1.3657833
0002e0 be 10 27 40 4d 91 05 3f e3 41 cf 3e 01 f7 75 40
       2.6103969 0.52174836 0.40479955 3.843201
0002f0 a1 96 44 40 c4 eb 15 40 a7 a4 d4 3e 71 19 ed 3f
       3.0716937 2.342515 0.4153187 1.8523389
000300 cc 12 50 40 1b eb b1 3f 5b 44 33 3d 06 5f 24 40
       3.2511473 1.3899873 0.04376636 2.5682998
000310 62 22 4c 40 5f ec 49 3e 4b 1b 3a 40 6b 2d 55 40
       3.1895986 0.19719075 2.9079158 3.330897

weight f4 [200, 200]
000000 90 75 97 be 1b 44 06 bf 29 7d 98 bf ca 83 75 be
       -0.2958188 -0.5244767 -1.1913196 -0.23976055
000010 52 28 1d be 1a 6b bc be ed 76 f0 bf 3f 79 58 bd
       -0.15347412 -0.36800462 -1.8786293 -0.052850004
000020 85 80 23 bf ea 9c 12 be 25 84 10 be ed ea 1b be
       -0.6386798 -0.1431767 -0.14112909 -0.15226336
000030 d4 5d 9d bf 41 6e 4a be 89 43 80 be e9 27 d2 bd
       -1.2294259 -0.19768621 -0.25051525 -0.102615185
000040 13 2f 8a bd b0 56 58 3d b8 bd 06 bd 24 11 4a be
       -0.0674726 0.052817047 -0.032895774 -0.19733101
000050 28 c4 54 3e bc ac 5e be 0c 3b 69 be 8f 17 b1 be
       0.20777953 -0.2174558 -0.22776431 -0.34588286
000060 94 75 af bd f4 2a 50 bd a6 3d 67 bf 41 c9 58 be
       -0.08567348 -0.050822213 -0.90328443 -0.21170522
000070 5c 21 07 be 28 c8 5a 3b 1a 67 53 bf 79 1e 88 bf
       -0.1319632 0.0033383463 -0.82579195 -1.06343
000080 42 0d 81 be d7 fa 7c be d3 f3 5d be cd 95 91 be
       -0.25205427 -0.24705063 -0.21675043 -0.284346
000090 63 9c 45 bf 3f d2 0f bf ff fa af be cf ca d6 be
       -0.7719175 -0.56180185 -0.34371182 -0.41951606
0000a0 21 e4 e4 be 2b c2 dc be 52 2b 8c be e5 4e 38 bf
       -0.447053 -0.43116888 -0.273768 -0.71995384
0000b0 95 68 8e be c7 85 5c be 9f 61 81 be af 1f 34 bf
       -0.27814165 -0.21535407 -0.2526979 -0.70360845
0000c0 a4 32 fd be d4 56 c9 be 07 3f 96 be 7b 25 2d bf
       -0.49452698 -0.39324057 -0.2934496 -0.67635316
0000d0 b3 99 e5 bd 36 e5 4a be ab 14 ca be a5 26 40 be
       -0.112109564 -0.19814 -0.39468893 -0.18764742
0000e0 8c 1b 2e bf 58 ff cf bf be 21 c6 be 02 d7 3f be
       -0.68010783 -1.62498 -0.38697618 -0.18734363
0000f0 5e 08 fe bd 16 22 7e be 87 78 86 bf 51 13 48 bf
       -0.1240394 -0.2481769 -1.0505532 -0.78154474
000100 5f ac 8b be 17 00 bf be 35 58 94 be 1d 86 99 be
       -0.27279946 -0.37304756 -0.28973547 -0.29985133
000110 35 98 20 bf 45 40 eb bf 1e 8a d1 be 58 04 ab bf
       -0.6273225 -1.8378989 -0.40925688 -1.3360701
000120 7d b0 cf be 00 f8 7a be 79 9b 94 be 02 4b c5 be
       -0.40564337 -0.24508667 -0.29024866 -0.3853379
000130 de fa 68 bd d2 31 04 bf bc 7c a5 be b2 85 3c be
       -0.05687987 -0.5163852 -0.32321727 -0.18410376
000140 4e 87 6b 3f 62 a8 cc be 3d a6 e4 be 4b 86 26 bf
       0.92003334 -0.39972216 -0.4465808 -0.65048665
000150 2d 08 3d bd c6 f7 b0 be 92 38 90 bf cf 36 75 be
       -0.046150375 -0.34564036 -1.1267264 -0.23946689
000160 e9 b9 ed be ef e0 fe be a0 0c 78 3e 6b 5d 8d be
       -0.464309 -0.49780986 0.24223566 -0.27610335
000170 e2 54 9e bf 55 4f 87 be bd 95 dc be c3 d0 41 be
       -1.2369654 -0.26427713 -0.4308299 -0.18927293
000180 a2 48 0a bf 5e c3 d1 be e2 b3 80 be b9 86 7b be
       -0.5401708 -0.40969366 -0.2513724 -0.24563111
000190 04 21 fb be f9 8e ae be 01 c5 d8 bc 39 f9 27 bf
       -0.49048626 -0.34093454 -0.026461126 -0.6561466
0001a0 d4 25 fb be 09 ef 17 bf 54 2e 3e be 28 55 c7 be
       -0.49052298 -0.59349114 -0.1857236 -0.38932157
0001b0 6e 8e ed bd 8a cb b4 bd bf 4c 09 bf 89 a7 17 be
       -0.11599432 -0.088278845 -0.5363273 -0.14810003
0001c0 37 86 ec bf cc 2a 0c bf 3d 4f 1f bf 64 7b b7 bd
       -1.8478459 -0.547528 -0.62230283 -0.08959082
0001d0 f2 6c 09 bf 47 c8 07 be ea 75 a2 bf 4a ce 83 be
       -0.5368186 -0.13259993 -1.2692235 -0.25743324
0001e0 18 e4 03 3e 31 60 9e be 62 26 8d bd cf 9c 2d bf
       0.1287998 -0.30932763 -0.068920866 -0.67817396
0001f0 3d 56 44 bf ac d1 a6 3d f8 53 c7 bd 3a f3 8e be
       -0.7669409 0.081454605 -0.09732813 -0.27919942
000200 1d 0c 06 bf cc 08 69 be 6d 67 b4 be 02 0f 97 be
       -0.52362233 -0.22757262 -0.35235158 -0.29503638
000210 b8 87 9e be c7 4a 9b be bb d6 23 be b5 c3 9c 3d
       -0.3096292 -0.30330488 -0.15999882 0.07654516
000220 f2 7d c0 bf 89 42 1b bd ce 8f 67 be 7a 9c 40 bc
       -1.5038435 -0.03790525 -0.22613451 -0.011756057
000230 98 e5 b3 be 7e 0b 23 be d2 18 05 3e 07 c3 cc bd
       -0.35136104 -0.15922353 0.1299775 -0.09998136
000240 da 06 6f bf 06 81 fd be b1 bd c7 be 61 1e 2a be
       -0.9336983 -0.495125 -0.3901191 -0.16613151
000250 7d 73 6f bc 1e d3 ef bd 84 cd 14 bf fd 44 ee be
       -0.014614937 -0.11710189 -0.5812609 -0.4653701
000260 f3 23 43 be b3 1c af 3e f8 89 0f be cd 87 bc 3d
       -0.19056682 0.34201583 -0.14017475 0.092055894
000270 dc 5f c1 be 49 e1 56 bf 77 2e dc be f3 b0 97 be
       -0.37768447 -0.8393751 -0.430042 -0.2962719
000280 35 c5 1f be a5 3f 2d be 0a c3 b0 be 5e 1b 1a be
       -0.15602572 -0.1691881 -0.34523803 -0.15049502
000290 49 4f ad bd 87 dc 79 be a3 76 4d bf 26 b0 51 be
       -0.08462388 -0.24400531 -0.8025915 -0.20477352
0002a0 e4 38 cb be b1 7e 04 bf 40 9a a1 be 6f 07 83 be
       -0.39691842 -0.51755816 -0.31562996 -0.2559161
0002b0 98 3f 41 bf 73 50 4c bf 0a 85 45 bf 67 89 59 be
       -0.7548766 -0.79810256 -0.77156126 -0.21243821
0002c0 be e5 1c be de 15 0d bf f6 58 a7 bd 74 e7 59 be
       -0.15322015 -0.5511149 -0.08171265 -0.21279699
0002d0 03 d8 49 be 38 75 4c be 22 f2 89 bf 18 06 33 c0
       -0.19711308 -0.1996659 -1.0777018 -2.797247
0002e0 d5 06 1a be 9e 02 58 bf 2c 41 7e bf 70 45 9b be
       -0.15041669 -0.84378994 -0.99318194 -0.30326414
0002f0 8d 2b be 3d 7a cf a7 bf 4b 2a 43 bf 38 66 17 bf
       0.092856504 -1.3110192 -0.7623641 -0.5914035
000300 4f c2 2e bf 7f f4 b2 be e5 5c 27 bf 6a f4 67 bf
       -0.6826524 -0.3495216 -0.6537612 -0.9060732
000310 32 13 24 bd 66 d4 5e be 01 23 51 be de ba 90 3d
       -0.04005737 -0.21760711 -0.20423509 0.07066892
000320 47 c4 87 bd 67 15 ea be 15 9e 9e bf f2 38 28 bf
       -0.06629234 -0.45719454 -1.2391993 -0.6571189
000330 77 15 45 bd 6f e4 b7 be 66 5d cb bf 08 ad 0f be
       -0.048116174 -0.35916469 -1.5887878 -0.1403085
000340 01 51 19 bf 09 7a 83 be 26 27 26 be 7b 12 81 be
       -0.5988923 -0.25679043 -0.16225871 -0.25209412
000350 ae ee 63 bf c1 44 09 bf aa d0 e7 be 2b 58 ef bd
       -0.8903607 -0.53620535 -0.45276386 -0.116867386
000360 d9 23 c7 bd 31 f4 ab be e7 45 5f be 73 78 0a bf
       -0.09723634 -0.3358474 -0.2180401 -0.5409004
000370 e5 c7 2d be 32 5d 03 be d8 6a 68 be 09 bf 04 bf
       -0.16970785 -0.1282852 -0.22697008 -0.51853997
000380 8a 47 a8 be 42 12 37 be 5c 67 66 bf 9d fe 78 be
       -0.3286708 -0.17878059 -0.90001464 -0.24315877
000390 2f ed ca bc 15 70 e5 bc 7d b0 01 bf 93 86 82 bf
       -0.024771301 -0.028007546 -0.50659925 -1.0197319
0003a0 07 b3 ce be 6b 43 c5 bd 92 d9 6b be 69 34 af be
       -0.40370962 -0.096319996 -0.23032215 -0.34219673
0003b0 da 58 24 bf 4c 0d 21 bf 11 cb 9d bd a4 b0 cd be
       -0.64198077 -0.62910914 -0.077047475 -0.4017383
0003c0 cb 9f 10 bf ab b1 12 bf 4f 39 90 be b9 fb 5f bf
       -0.56493825 -0.5730235 -0.28168723 -0.87493473
0003d0 30 f7 8c be 73 ef 3e be a2 e7 80 be f4 57 cd be
       -0.2753234 -0.1864603 -0.25176722 -0.40106165
0003e0 7b 8e 94 be ca d5 04 bf d9 9f f2 be b4 93 09 be
       -0.29014954 -0.51888716 -0.4738758 -0.1343525
0003f0 49 2f 46 be 98 2a f9 bd b2 6e 35 bf fd f0 ed be
       -0.19353975 -0.12166327 -0.7087203 -0.46472922

bias f4 [200]
000000 0a 83 88 bf c7 cf b6 bf a1 ea 85 bf e7 35 1c 3f
       -1.066499 -1.4282159 -1.0462228 0.6101975
000010 5d 6b 83 bf ef 93 77 40 34 7e 62 ba 2d c5 38 bf
       -1.026714 3.8684042 -0.00086400216 -0.72175866
000020 d9 c8 fc be 64 5a 79 bf 35 4e 94 bf 49 07 57 bf
       -0.49371985 -0.9740355 -1.1586367 -0.8399549
000030 56 22 25 40 b5 39 ea 3f e3 e2 8a 40 70 b2 b0 bf
       2.5802207 1.8298861 4.340196 -1.3804455
000040 e7 9e a7 bf 74 c7 a3 bf 6e e6 58 bf 6c eb 78 bf
       -1.3095368 -1.2795243 -0.8472661 -0.97234225
000050 f3 19 46 40 b8 c7 d7 bf 55 d4 54 40 94 68 7f bf
       3.0953338 -1.6857824 3.3254597 -0.9976895
000060 2e 0c 03 3f 22 58 2e 40 28 5d 3d 40 59 94 8d bf
       0.5119046 2.7241292 2.9588108 -1.1060897
000070 b0 a9 96 bf 27 8b 0c 40 23 4c 87 bf 36 5d c5 3e
       -1.1770535 2.1959932 -1.057011 0.38547677
000080 8b e5 cb 3f 3f 20 6c 3d 46 ad 83 bf 26 27 56 bf
       1.5929426 0.05764794 -1.0287254 -0.83653486
000090 40 07 8c bf d9 8c 31 bf 93 85 22 bf ad bb 01 40
       -1.0939713 -0.6935554 -0.6348507 2.0270798
0000a0 ed 55 9e bf 89 01 8a 3f 89 3b d5 3d d5 e1 3f bf
       -1.2369972 1.0781718 0.10411746 -0.7495397
0000b0 57 dd 30 40 28 8a 2c 40 12 b4 a1 3e 21 a8 97 be
       2.7635095 2.6959324 0.31582695 -0.2962046
0000c0 2d 9b b9 bf e6 2b a6 3f 7e 55 ac bf 23 cb 84 bf
       -1.4500481 1.2982147 -1.346359 -1.0374492
0000d0 4d 87 ac bf 34 7c c0 bf 5c d5 c6 3d 40 fe 08 40
       -1.347879 -1.5037904 0.09708664 2.1405182
0000e0 d6 91 91 be 7a 52 37 bf ee 5e 61 40 cb bf 28 bf
       -0.28431576 -0.71610224 3.521419 -0.6591765
0000f0 c5 1d 18 40 8b cf 5b bf 05 38 98 bf cc 1e 73 bf
       2.376817 -0.8586356 -1.1892096 -0.9496887
000100 77 a2 24 40 1c 73 d0 3f ac 66 7b 40 ed 28 57 bf
       2.572416 1.6285129 3.9281416 -0.8404682
000110 43 26 26 bf 9e 05 a2 be 3c dd 4c 40 c1 5b e6 bf
       -0.6490213 -0.3164491 3.201003 -1.7996751
000120 9e a1 f2 3e a0 1f 7d 3f ea a4 a6 bf 7e 68 36 40
       0.4738893 0.9887638 -1.3019078 2.8501277
000130 a2 05 9e bf 91 a5 41 3c 73 79 84 bf 2b 2f a7 bf
       -1.2345469 0.011819259 -1.0349563 -1.306127
000140 f7 7a 9d bf 94 b7 ae bf 27 07 b2 bf 79 4e 03 40
       -1.2303151 -1.3649774 -1.3908433 2.0516646
000150 50 d8 82 bf 23 77 9a bf e2 5b 56 3f 86 1e ad bf
       -1.0222263 -1.2067608 0.8373395 -1.352494
000160 e7 6d 59 bf ea b1 1b 3f b6 af f2 3e 33 79 ba 3f
       -0.8493332 0.6081835 0.47399682 1.4568237
000170 24 e4 0d 40 5b 83 c3 bf 93 54 20 bf 5e 1f 11 bf
       2.2170496 -1.5274462 -0.6262905 -0.5668849
000180 4b ae 33 40 80 70 8e bf 41 3d 8f bf f0 15 8a 40
       2.807513 -1.1128082 -1.1190568 4.315178
000190 05 a2 77 40 af 18 70 bf e4 9a 51 40 47 87 8b bf
       3.869264 -0.93787664 3.2750788 -1.0900658
0001a0 79 2f de be 46 32 ed 3d 08 63 34 40 e4 9f 81 40
       -0.43395594 0.115818545 2.8185444 4.050768
0001b0 dc 54 ab bf 97 9b 41 3f c9 35 89 bf db 94 91 bf
       -1.3385272 0.75628036 -1.0719539 -1.1373552
0001c0 c4 56 95 be 0a 29 9f bf 30 d1 43 3e 5d 55 8b bf
       -0.2916776 -1.2434399 0.19122767 -1.0885426
0001d0 e6 a4 83 bf bb cc 60 40 33 8d a8 3f 64 ba b7 bf
       -1.0284698 3.5124958 1.316809 -1.4353757
0001e0 d8 1c 21 bf f6 81 50 40 a8 1a 80 40 cf 0a 31 40
       -0.6293464 3.2579322 4.003254 2.7662847
0001f0 8b 11 5d bf 63 a2 ad 3f c0 75 48 bf 88 3a 94 bf
       -0.86354893 1.3565181 -0.7830467 -1.1580362
000200 29 0e 68 bf b8 f5 40 40 cb 7e b9 bf 2b ee 8c bf
       -0.90646607 3.0149975 -1.4491819 -1.1010183
000210 ec ed 4e bf 5e 5a 3c bf fa e5 8d bf ed 6d 1c bf
       -0.8083179 -0.7357539 -1.1085808 -0.61105233
000220 f1 f2 b8 bf dc 3c df 3f 19 8b c6 3e a3 6a 85 bf
       -1.444914 1.7440448 0.38777998 -1.0423168
000230 23 5f fa 3f d6 fe 51 bf d6 6d c3 bf b0 a5 b8 3e
       1.9560283 -0.82029474 -1.5267894 0.3606391
000240 1d 54 93 40 78 17 31 bf ab 1f cc bf 1b 76 5e bf
       4.6040177 -0.69176435 -1.5947164 -0.86898965
000250 c9 b8 5a 3f 35 92 97 3f 69 56 40 40 a9 07 2d bf
       0.8543821 1.1841494 3.005274 -0.67589813
000260 9b 9d b8 bf e8 bc 83 be 70 7a b5 3e 0f d7 cd bf
       -1.4423097 -0.25730062 0.35444975 -1.6081256
000270 f8 e1 8f bf c6 f2 5c 3f d8 eb c3 bf 09 3d db 3f
       -1.1240835 0.8630794 -1.5306349 1.7128001
000280 e4 2c e3 bf f2 f1 5c bf cd 32 3d 40 2f 50 a5 3e
       -1.7748075 -0.8630668 2.9562256 0.32287738
000290 63 d5 ce 3f 49 ea 0f 40 c6 b3 c2 bf 42 ee 90 bf
       1.615887 2.2486746 -1.5211112 -1.132271
0002a0 e1 a6 0d 3f f5 53 a6 3f 04 c0 d5 3d 5b 15 90 bf
       0.5533276 1.2994372 0.10437015 -1.1256517
0002b0 ad 42 28 40 82 bd 8c bf 31 32 69 bf 95 7d cf bf
       2.6290696 -1.0995333 -0.9109221 -1.62102
0002c0 8b ef 95 3f da 3e 00 40 d5 02 20 40 9f 46 4b bf
       1.1713728 2.0038362 2.5001729 -0.79404634
0002d0 ea be bb 3f 9b d8 e3 3f ff c3 82 bf 4c da 4a bf
       1.4667637 1.7800478 -1.0216063 -0.79239345
0002e0 57 94 5e bf 40 ed ac 3f 12 16 62 bf 6c 4c 2e bf
       -0.869451 1.3509903 -0.88314927 -0.6808536
0002f0 cc 0c c2 be 2a 1c 4c bf ee 82 b6 bf 8f 1a 4a 40
       -0.37900388 -0.79730475 -1.4258707 3.157871
000300 91 b3 47 3f 44 6c 7c bf 72 a1 66 3f 57 c1 9c 40
       0.7800837 -0.986027 0.90090096 4.898601
000310 b4 7b 6e bf f2 c2 48 bf 79 84 d7 bf 81 b7 81 3f
       -0.93157506 -0.7842246 -1.6837302 1.0134126

weight f4 [200, 200]
000000 06 13 46 bf d1 46 15 bf 41 39 1b bf be c6 83 bf
       -0.7737278 -0.5831118 -0.6063424 -1.0295026
000010 40 ce e0 be 23 40 52 bf ce 38 c0 bf 0b 64 06 bf
       -0.43907356 -0.82129115 -1.5017335 -0.52496403
000020 34 ca 36 bf 2a d9 f3 be 93 43 0f bf a3 54 2e bf
       -0.7140229 -0.4762662 -0.55962485 -0.68097895
000030 a9 c8 a0 bf 65 86 70 bf fb dc 2d bf 85 60 24 bf
       -1.2561237 -0.9395507 -0.67915314 -0.6420978
000040 f7 73 21 bf 1b 4d 21 bf e7 9b d8 be f7 0e 1d bf
       -0.63067573 -0.6300828 -0.42306444 -0.6135096
000050 8b 77 80 bf 8d 57 34 bf 4d 79 f5 bf d4 29 dc be
       -1.0036482 -0.7044609 -1.9177643 -0.43000662
000060 15 bb 3a bf 77 73 9b bf 8a bf b1 bf 1f cf 11 bf
       -0.72941715 -1.2144612 -1.3886578 -0.56956667
000070 12 ee 19 bf b2 5c 9b bf b4 eb 0c bf 17 f2 8c bf
       -0.6012889 -1.2137663 -0.55047154 -1.101138
000080 a8 c9 b4 bf bb fe 8f bf b3 20 cd be cb 33 18 bf
       -1.4124041 -1.1249613 -0.4006401 -0.5945403
000090 bc bc 28 bf 08 83 22 bf 7f 85 4c bf 75 cf a0 bf
       -0.65912986 -0.6348119 -0.798912 -1.2563311
0000a0 f5 ee 0b bf f3 69 86 bf 85 eb 47 bf 14 fe 38 bf
       -0.54661494 -1.0501083 -0.7809375 -0.7226269
0000b0 49 7f 02 c0 c1 5c bc bf 27 1f 3f bf d1 5f dd be
       -2.0390189 -1.4715806 -0.7465691 -0.43237165
0000c0 4a 79 40 bf d0 34 a2 bf 76 e6 20 bf c3 a1 6b bf
       -0.7518507 -1.2672367 -0.62851655 -0.92043704
0000d0 89 09 f7 be 40 11 fa be 7d 3a 4e bf d4 b7 92 bf
       -0.48249462 -0.48841286 -0.80557996 -1.146235
0000e0 6e 88 35 bf de dc 15 bf d3 f0 86 bf 43 05 2d bf
       -0.709113 -0.5854014 -1.0542244 -0.67586154
0000f0 6c 59 af bf 80 1d 2d bf 33 4b 5a bf ad ef 3a bf
       -1.3699164 -0.6762314 -0.85270995 -0.73021966
000100 70 be 81 bf 56 87 cb bf 4b b7 47 bf 89 6d e0 be
       -1.0136242 -1.5900676 -0.7801406 -0.4383357
000110 fb e7 22 bf 06 73 42 bf c2 2a f9 bf ed e0 30 bf
       -0.63635224 -0.7595676 -1.9466174 -0.6909321
000120 1d ec 66 bf 79 81 3f bf 4a 17 f5 be fe e9 84 bf
       -0.9020403 -0.74806935 -0.4786933 -1.0383909
000130 ef 9c 1b bf c8 09 0a bf da 6f f5 be 60 8c dc be
       -0.60786337 -0.53921175 -0.47936898 -0.43075848
000140 f6 5a 4a bf df 4d 3b bf 7f 59 11 bf 53 73 c0 bf
       -0.79045045 -0.73165697 -0.56777185 -1.5035194
000150 57 8d 57 bf ad 1e 41 bf f7 50 8d bf 3f 9e 35 bf
       -0.8420004 -0.7543743 -1.1040334 -0.7094459
000160 d6 20 1b bf 3c 11 83 bf 88 a0 73 bf ea d5 85 bf
       -0.6059698 -1.0239635 -0.95166826 -1.0455906
000170 42 e3 bc bf 64 ef f8 be 4a 30 f2 be 96 f4 23 bf
       -1.4756854 -0.4862014 -0.47302467 -0.64045084
000180 06 08 9c bf 9a f7 2f bf 9a 0a 59 bf 7b 54 00 c0
       -1.2189949 -0.68737185 -0.847818 -2.0051563
000190 8b 00 e8 be 4b 42 1d bf a7 0d 93 bf 58 19 40 bf
       -0.45312914 -0.6142928 -1.1488541 -0.7503867
0001a0 66 3f d7 be 82 ea 48 bf d1 b7 9e bf ed 20 95 c0
       -0.42040557 -0.7848283 -1.2399846 -4.6602693
0001b0 d0 76 0c bf d7 93 78 bf e8 58 32 bf 58 ed 1c bf
       -0.54868793 -0.97100586 -0.6966691 -0.6129966
0001c0 57 a4 15 bf 09 da 6a bf 91 c1 7d bf 0e c6 0a bf
       -0.5845389 -0.91738945 -0.99123484 -0.5420846
0001d0 f2 42 20 bf 6b 85 ad bf 0f ab 90 bf 5d 9c e1 be
       -0.6260215 -1.3556341 -1.1302203 -0.44064608
0001e0 a0 79 2b bf b8 9c 0a c0 42 47 56 c0 f2 eb a2 bf
       -0.6698246 -2.1658154 -3.3480992 -1.2728255
0001f0 43 10 35 bf a5 dd a1 bf 13 92 0c bf e4 8c 70 bf
       -0.7072794 -1.2645766 -0.5491039 -0.9396498
000200 82 27 37 bf e2 49 a8 bf 68 63 65 bf 96 c1 64 bf
       -0.7154466 -1.3147547 -0.89604807 -0.8935789
000210 a3 72 07 bf 5c 37 37 bf d0 20 46 bf ef 28 3b bf
       -0.52909297 -0.71568847 -0.7739382 -0.73109335
000220 19 05 3c bf 89 df bc bf 1c cd 6b bf 66 1f 1c bf
       -0.7344528 -1.4755718 -0.9210985 -0.6098541
000230 bb a8 95 bf 1e 2a f5 be 01 52 4b bf 8b 6e 57 bf
       -1.1692117 -0.47883695 -0.79422003 -0.8415305
000240 dd ee d4 bf 8e 2a 40 bf 9f 51 02 bf de 3a 3a bf
       -1.6635395 -0.75064933 -0.50905794 -0.72746074
000250 b0 62 83 bf 68 87 84 bf cb ea 57 c0 46 c2 05 bf
       -1.0264492 -1.0353823 -3.3737056 -0.5224956
000260 a3 a8 3f bf 32 19 94 bf 05 8e 88 bf 80 38 3b bf
       -0.74866694 -1.1570189 -1.0668341 -0.7313309
000270 89 03 e6 be 26 db 86 bf 45 e5 5e bf 20 a9 ad bf
       -0.44924572 -1.0535629 -0.8706859 -1.3567238
000280 26 b8 83 bf 3e db 02 bf 16 73 ae bf 75 e7 0d bf
       -1.0290573 -0.5111579 -1.3628871 -0.554313
000290 00 44 98 bf 8c 05 99 bf 0a 78 37 bf df 60 4d bf
       -1.1895752 -1.1954818 -0.7166754 -0.8022594
0002a0 17 09 59 bf 28 27 78 bf 99 6e 4a bf 11 ad 12 bf
       -0.84779495 -0.9693475 -0.7907501 -0.5729533
0002b0 3d a8 97 bf e0 ce e6 be b4 ef 14 bf 50 d5 a6 be
       -1.1848217 -0.45079708 -0.5817826 -0.3258462
0002c0 5f 0f 8c bf 79 17 d0 bf 7a 00 8d bf 3d 65 fb be
       -1.0942191 -1.6257163 -1.101577 -0.49100676
0002d0 2a 99 8e bf 0e 9f 90 bf a9 9b 23 bf 32 a9 5e bf
       -1.1140492 -1.129854 -0.63909394 -0.8697692
0002e0 b0 3d 14 bf 13 f5 c1 bf 21 25 0f bf cd 57 0e bf
       -0.5790663 -1.5152916 -0.5591603 -0.55602723
0002f0 d1 89 1f bf 37 39 fd be 01 7d 10 bf d8 7f f8 bf
       -0.62319666 -0.49457714 -0.5644074 -1.9414015
000300 a7 48 95 bf 4d 83 25 bf 2c 4d 83 bf 42 ce 12 c0
       -1.1662797 -0.64653474 -1.0257926 -2.293839
000310 79 bc 22 bf 9d 96 df be ef 7a 06 bf 38 e0 6f bf
       -0.63568836 -0.43669596 -0.5253133 -0.93701506
000320 17 a7 d6 be da fa 3d bf 26 e2 1e bf 1d e6 86 bf
       -0.41924354 -0.74210894 -0.62063825 -1.0538975
000330 e9 bf c9 be fb 73 4f bf f3 19 df bf 92 49 18 bf
       -0.39404228 -0.8103635 -1.7429794 -0.5948726
000340 b0 2b 34 bf 3e 82 11 bf 4e 3f 2f bf 45 11 39 bf
       -0.7037916 -0.5683936 -0.6845597 -0.72291976
000350 c4 df cd bf 37 c5 be bf ed 65 83 bf e7 09 5f bf
       -1.6083913 -1.4903935 -1.026548 -0.87124485
000360 77 7d 1a bf 31 85 59 bf ee 59 11 bf 58 a1 08 bf
       -0.60347694 -0.8496886 -0.56777847 -0.5337119
000370 ab 0a 9b bf 38 95 23 bf 86 c0 f8 bf 84 cb 2f bf
       -1.2112631 -0.63899565 -1.9433753 -0.68669915
000380 cb fb ab bf 51 14 b4 bf 7b 2b e4 bf 68 b4 42 bf
       -1.3436216 -1.40687 -1.7825769 -0.7605653
000390 84 5d d0 be 85 69 a6 bf 47 75 3f bf a1 5f 8c bf
       -0.40696347 -1.3000952 -0.74788326 -1.0966684
0003a0 bf ee 9d bf 36 b7 8f bf ad 8d a9 be 87 e0 29 bf
       -1.2338485 -1.1227787 -0.33115903 -0.66358227
0003b0 ce 87 f7 be f3 62 50 bf a5 24 1c bf 81 5c c8 bf
       -0.48345798 -0.81400985 -0.60993415 -1.565323
0003c0 70 c4 3f bf 48 17 90 bf 36 c5 82 bf b4 38 3c bf
       -0.74909115 -1.1257105 -1.0216434 -0.7352402
0003d0 22 19 25 c0 16 ea bf bf 8b d5 9c bf 80 0f 16 bf
       -2.579659 -1.4993312 -1.2252668 -0.586174
0003e0 1d 90 3a bf 76 63 a2 bf af d9 1f bf da ff 3b bf
       -0.7287615 -1.2686603 -0.62441534 -0.73437274
0003f0 42 6a 51 bf 5f 91 3a bf 65 3d 75 bf 8b 8e c2 bf
       -0.8180276 -0.7287807 -0.95796806 -1.5199751

bias f4 [200]
000000 b8 3d f5 bf 2a bf f1 bf 45 30 fb bf 70 1b f9 bf
       -1.915946 -1.8886464 -1.9624106 -1.9461498
000010 77 0e 7e bf b9 5c ee bf 09 ac 21 3f 73 0b 1a 40
       -0.9924082 -1.8622047 0.6315313 2.4069488
000020 92 e0 0b c0 39 12 01 c0 83 9e f8 bf 8d 24 ed bf
       -2.1855817 -2.0167372 -1.9423374 -1.852678
000030 25 98 ed bf 40 93 ed bf f2 3b fb bf 08 e2 f7 bf
       -1.8562056 -1.8560562 -1.9627669 -1.9365854
000040 c2 5b d2 bf 07 37 08 c0 dd 0e f7 bf a4 e1 08 c0
       -1.6434252 -2.1283586 -1.9301411 -2.138772
000050 cc ab ee bf 58 8e 04 c0 d7 fe 00 c0 47 5a a2 40
       -1.8646178 -2.071188 -2.0155542 5.07352
000060 ea 4b c4 bf 56 35 f6 bf 70 fa 62 bf 45 72 45 bf
       -1.5335667 -1.9235027 -0.8866339 -0.77127486
000070 36 cc 8f bf 4a 43 e1 bf 61 5a fe bf b9 93 06 bf
       -1.1234195 -1.759866 -1.9871331 -0.52569157
000080 88 94 fe bf 52 d7 4d be 67 97 f8 bf 2f 15 f6 bf
       -1.9889078 -0.2010167 -1.9421204 -1.9225215
000090 1f 8d 2a 3f 97 2b f3 bf fa 7d e7 bf 07 a1 f3 bf
       0.66621584 -1.8997678 -1.808532 -1.9033517
0000a0 8a dc fb bf 5e 20 35 bf 41 be f3 bf 60 ed f6 bf
       -1.9676678 -0.70752513 -1.9042436 -1.9291191
0000b0 65 80 f8 bf 81 0c 98 bd b8 4b 01 c0 c5 4b 9a bf
       -1.9414183 -0.0742426 -2.0202465 -1.2054373
0000c0 5d 21 b0 3f 70 ab f8 be 56 8d cb 3d 69 44 e8 bf
       1.3760182 -0.48568296 0.09939067 -1.8145877
0000d0 41 56 02 c0 c0 5d fd bf 2c 41 7b bf 2d ff e9 bf
       -2.0365145 -1.9794235 -0.9814632 -1.8280998
0000e0 d3 a0 57 bf b6 f2 ff bf c8 58 e9 bf 1b 02 fa bf
       -0.84229773 -1.9995944 -1.8230219 -1.9531893
0000f0 87 e9 d3 bf 78 58 df bf be ae 2f 40 a3 12 5f bf
       -1.6555642 -1.7448874 2.7450404 -0.8713781
000100 ea b4 db bf fb ab f2 bf 19 1d f1 bf 6a 54 df bf
       -1.7164586 -1.8958734 -1.8837005 -1.7447636
000110 4b 66 95 40 ec da 3c bf 77 a9 fb bf e6 c7 dd bf
       4.668737 -0.7377155 -1.9661092 -1.7326629
000120 7e 9c ef bf 72 b0 df bf fc 54 e6 bf 16 26 d9 bd
       -1.8719633 -1.7475722 -1.7994685 -0.106029674
000130 4e 37 08 c0 09 4f 21 be 33 35 93 bf e8 55 07 c0
       -2.1283755 -0.15752806 -1.150061 -2.1146183
000140 19 f8 fd bf d3 99 d0 bf 80 a7 f7 bf 00 cc dc bf
       -1.9841338 -1.6296943 -1.9347992 -1.7249756
000150 36 ca f7 bf 1a cc da bf 41 f4 dc bf 12 8d f1 bf
       -1.9358585 -1.7093537 -1.726204 -1.8871176
000160 95 cf ff bf a6 af ed bf 2f fc dc bf 11 49 f3 bf
       -1.9985224 -1.8569229 -1.726446 -1.9006673
000170 be d7 03 c0 3c c2 94 3f 62 86 f1 bf 8a d3 f8 bf
       -2.0600429 1.1621776 -1.8869135 -1.9439557
000180 11 b6 cb bf 33 33 e1 bf 15 b0 03 c0 be 2d a1 be
       -1.5914937 -1.759375 -2.0576222 -0.3148021
000190 27 8f f4 bf 5e f7 35 3f 07 85 f1 bf 2e 0c fa bf
       -1.9106187 0.7108058 -1.8868722 -1.9534967
0001a0 9f 1a 5e 3f 0d eb 57 3e b0 60 9b bf 80 47 00 c0
       0.8675937 0.21085759 -1.2138882 -2.004364
0001b0 d9 6e 02 c0 92 33 e8 bf a1 08 f8 bf 59 b7 92 bf
       -2.0380156 -1.8140738 -1.9377633 -1.1462203
0001c0 e5 80 b6 bf e5 63 96 3e 98 29 f6 bf 1b 61 ff bf
       -1.4258085 0.29373088 -1.9231443 -1.9951509
0001d0 49 66 f6 bf 8a 8a ed bf 65 e5 ff bf 6a 53 1c bf
       -1.9249965 -1.8557904 -1.9991881 -0.6106478
0001e0 cd 1e ee bf a5 7f ec bf 04 19 f9 bf 6d ab 00 c0
       -1.860315 -1.8476454 -1.9460759 -2.010463
0001f0 6f 24 ab bd 68 ac f0 bf f2 47 f6 bf a6 7a e0 bf
       -0.083565585 -1.8802614 -1.9240706 -1.7537429
000200 0c 4e ec bf b1 79 53 bf 42 d3 16 40 f5 69 ea bf
       -1.8461318 -0.8260756 2.3566442 -1.8313586
000210 d3 58 9d bf 69 a4 01 c0 dd 76 01 c0 d6 b9 f8 bf
       -1.2292732 -2.0256598 -2.0228798 -1.9431713
000220 16 37 07 c0 85 0d c1 bd 06 c1 dc bf 9d 1c 03 c0
       -2.1127372 -0.09426407 -1.7246406 -2.0486214
000230 e8 33 00 c0 98 ba f1 bf 42 dd c1 3f 1c cc 85 3e
       -2.003168 -1.8885069 1.5145648 0.26132286
000240 13 87 ec 3f 65 cd f4 bf 78 85 00 c0 05 01 a7 3f
       1.8478721 -1.9125181 -2.0081463 1.3047186
000250 bc 84 ec bf b1 0d e4 bf 50 a2 f9 bf 85 e3 f1 bf
       -1.8478007 -1.7816678 -1.9502659 -1.8897558
000260 b1 36 08 40 54 3e 16 bd 9c be 00 c0 e3 c1 f6 bf
       2.128338 -0.036680534 -2.0116339 -1.927792
000270 c6 d5 3b 40 89 7f 03 c0 71 f3 eb bf b1 57 00 c0
       2.9349227 -2.0546591 -1.8433667 -2.0053523
000280 4f 2b e0 bf 40 6f fc bf df 19 f0 bf 3e fe 21 be
       -1.7513217 -1.9721451 -1.8757895 -0.15819642
000290 07 fa fe bf 13 41 fa bf 7f 71 f1 bf 02 eb 03 c0
       -1.9920052 -1.9551109 -1.8862761 -2.0612187
0002a0 e2 5f 83 bf 5b ac cf bf ea 1e fd bf f8 a0 c8 bf
       -1.0263636 -1.6224474 -1.9775059 -1.5674124
0002b0 25 b1 71 be 45 ca 34 bf 97 73 5e 3e e1 0a fc bf
       -0.23602732 -0.7062114 0.21723782 -1.969082
0002c0 75 55 03 c0 76 c8 03 c0 95 b7 00 c0 59 30 f4 bf
       -2.052091 -2.0591102 -2.011205 -1.9077255
0002d0 51 bd fb bf 22 9c ae bf 8e b4 f6 bf a9 b5 d8 bd
       -1.966715 -1.3641398 -1.9273851 -0.10581524
0002e0 4e e2 f8 be 88 bd 63 bf 08 16 5a bf 73 5a 5e bd
       -0.48610157 -0.88961077 -0.85189867 -0.054285478
0002f0 28 5e 88 bf bb 3f 0e 40 3b 35 70 bd 57 ab fd bf
       -1.0653734 2.2226398 -0.058644515 -1.9817914
000300 af 63 80 be dd 5d f2 bf 17 e4 01 c0 29 52 ee bf
       -0.25076053 -1.8934895 -2.0295465 -1.8618823
000310 6e 98 d2 bf 28 1e 58 c0 c6 83 1c c0 4e ac f5 bf
       -1.6452768 -3.3768406 -2.4455428 -1.9193208

weight f4 [200, 200]
000000 a0 04 fd be 90 78 5a be 39 f2 15 bf 88 da d0 be
       -0.4941759 -0.21335053 -0.5857273 -0.40791726
000010 18 c6 a0 bf a8 cf 14 bf 83 b9 8c bf b0 3f 3e c0
       -1.2560453 -0.5812936 -1.0994114 -2.9726372
000020 b8 f7 40 bf 88 0f cc be a9 f1 98 be fb 50 3c be
       -0.7537799 -0.398556 -0.29871872 -0.18390267
000030 ab 89 c9 be 31 92 d2 be 78 c6 01 bf 3c df 07 bf
       -0.39362845 -0.4112716 -0.50693464 -0.53075004
000040 5c 31 6b bf b6 6e 8c be c7 90 a0 be ce 0b d2 be
       -0.9187219 -0.27428216 -0.31360456 -0.4102463
000050 eb 89 99 be 01 69 1a bf 6b a2 9d be 0f d0 05 3f
       -0.29988036 -0.60316473 -0.30787978 0.522706
000060 94 d7 40 bf c3 ba be be 6a e5 4f bf 06 3e 50 bf
       -0.75328946 -0.37251863 -0.81209433 -0.8134464
000070 36 36 85 bf aa b4 14 bf 90 77 1e bf 3f 8d 73 bf
       -1.0407169 -0.5808817 -0.6190119 -0.951374
000080 3a 5e f3 be be ea 5a bf ec 22 f6 be e1 23 0b bf
       -0.47532827 -0.8551444 -0.48073518 -0.5435162
000090 5e ed bf bf 1c 1c ac be 4b da 21 bf 3d 4b db be
       -1.4994314 -0.33615196 -0.63223714 -0.4283084
0000a0 74 d5 9b be 62 13 5f bf 17 47 f6 be a4 2c cc be
       -0.3043629 -0.8713895 -0.48101112 -0.39877808
0000b0 ee 26 20 bf 88 26 70 bf 68 25 0a bf 82 4e 59 bf
       -0.625594 -0.93808794 -0.5396333 -0.8488542
0000c0 fa a2 9b bf d7 15 86 bf 2e 37 66 bf 45 f2 f8 be
       -1.2159111 -1.0475415 -0.8992795 -0.48622337
0000d0 52 fa d4 be 82 35 06 bf 98 1f 5e bf dc 0a 04 bf
       -0.4159723 -0.52425396 -0.8676696 -0.5157907
0000e0 43 40 71 bf 5f ed 0a bf a7 b9 da be 93 ad bc be
       -0.9423868 -0.5426845 -0.42719766 -0.36851177
0000f0 cc c2 5d bf 26 e9 2b bf b7 28 a1 bf dd 71 85 bf
       -0.8662536 -0.6715263 -1.259055 -1.0425373
000100 9c e1 33 bf a5 19 a1 be a5 25 00 be 0c 5a 96 be
       -0.7026613 -0.31464878 -0.1251436 -0.29365575
000110 35 21 18 bf 2f 15 57 bf a2 6e b5 be 7c 39 ef be
       -0.5942567 -0.840167 -0.3543597 -0.46723545
000120 2f bf 1e be 4c c2 1a bf 61 3e 70 bf 5c 33 65 bf
       -0.15502618 -0.60452724 -0.9384518 -0.89531493
000130 11 2a cc be 68 8e 72 bf 68 03 40 bf ed bd 9b be
       -0.39875844 -0.94748545 -0.750052 -0.3041834
000140 b9 e3 f9 be ba 70 90 bf ef 72 07 bf c7 81 1a bf
       -0.4880655 -1.1284401 -0.5290975 -0.60354275
000150 d2 8b 03 bf 34 00 d7 be 51 b1 9c be 54 7c b8 be
       -0.51385224 -0.41992342 -0.30604032 -0.36032355
000160 df e0 6e bf 1f 6d 24 bf de a8 fb be 2e 5b c4 be
       -0.93311876 -0.64229006 -0.49152273 -0.38350815
000170 d3 a7 07 bf 05 43 a3 bf 02 50 41 bf d2 fa 1c be
       -0.52990454 -1.2754828 -0.7551271 -0.15330055
000180 a4 ce fd be 26 e2 66 bf 89 df c7 be 97 81 4f bf
       -0.49571717 -0.90188825 -0.3903773 -0.81057113
000190 6b ac 01 bf b7 79 81 bf 18 15 fd be 34 e9 16 bf
       -0.50653714 -1.011527 -0.49430156 -0.5894959
0001a0 2e 98 22 c0 d7 a9 8e bf 84 0e 54 bf 04 ef b0 be
       -2.5405383 -1.1145581 -0.8283465 -0.34557354
0001b0 61 e8 ec bd af 21 0c bf dc 18 fb be 9d 9a 38 bf
       -0.1156776 -0.547389 -0.49042404 -0.7211092
0001c0 e2 3b 89 bf 0c 69 47 bf 02 5f 18 bf fe ef e4 be
       -1.07214 -0.77894664 -0.5951997 -0.4471435
0001d0 cb 86 4b bf e6 c1 41 bf 05 68 7e be 0f c7 84 bf
       -0.7950255 -0.7568649 -0.24844368 -1.0373248
0001e0 ae 5f d8 be 8f dd c5 be bc 0f 29 bf 64 35 06 bf
       -0.42260498 -0.38645598 -0.66039634 -0.5242522
0001f0 ca 1a b5 bf 71 26 fb be 9a c1 a0 be 66 69 a9 be
       -1.41488 -0.49052766 -0.31397706 -0.33088225
000200 42 34 86 be 0f e9 8f bf 1b 12 2c bf 68 83 d1 be
       -0.26211745 -1.1242999 -0.67215127 -0.40920568
000210 95 d2 37 bf 11 4a 87 be ba e3 d8 be 9d a3 ee be
       -0.718057 -0.26423696 -0.42361242 -0.46609202
000220 a9 a5 0e bf 1e 8f 88 bf 63 ad 97 be dc b0 0d bf
       -0.5572153 -1.0668676 -0.2962447 -0.5534799
000230 c8 a0 5c bf b4 ae 11 bf 94 02 a0 bf 7c 8a 8a bf
       -0.8618283 -0.569072 -1.2500787 -1.0823512
000240 f4 ee cd bf 2f 85 03 bf e2 7e ba be bc 77 8f bf
       -1.6088548 -0.513751 -0.3642493 -1.1208415
000250 b5 9f 98 be 2c 2b 6f be b8 11 ca be 8c 94 e4 be
       -0.29809347 -0.23356313 -0.39466643 -0.44644582
000260 a1 b3 6c bf 20 97 a4 bf 2a 35 5c bf 02 1a 08 bf
       -0.9246159 -1.285862 -0.8601862 -0.53164685
000270 68 e6 fb bf 1c 04 72 be b5 7c 53 bf ab a1 b9 be
       -1.967969 -0.2363438 -0.8261216 -0.36256155
000280 5b 88 11 bf 80 0f b7 be 49 d3 f4 be 34 5c 5b bf
       -0.56848687 -0.35754013 -0.47817448 -0.85687566
000290 a3 f4 2d bf f0 cc 24 bf 16 0c 56 be 70 e3 44 be
       -0.6795141 -0.6437521 -0.20903048 -0.19227386
0002a0 98 84 4a bf 23 db 3d bf 23 f0 e0 be 89 17 c9 be
       -0.7910857 -0.741625 -0.4393321 -0.39275768
0002b0 72 c5 95 bf d6 d1 6e bf e6 aa b6 bf 2a e5 80 be
       -1.170088 -0.93288934 -1.4270904 -0.25174838
0002c0 81 f5 18 bf 3e c3 3e bf f5 7e 0f bf ba fc ba be
       -0.5974961 -0.74516666 -0.56053096 -0.3652094
0002d0 8a f0 a3 be ee 29 1f bf 6d fe db be cf 05 7d bf
       -0.32019454 -0.62173355 -0.4296755 -0.9883699
0002e0 60 5f 66 bf 8b 19 83 bf 17 7f 0c bf 5a b5 67 bf
       -0.8998928 -1.024217 -0.54881424 -0.90511096
0002f0 44 79 57 bf 9f fe 92 bf a1 e3 8e bf 5f b8 ae be
       -0.8416941 -1.1483954 -1.1163217 -0.3412504
000300 a6 f6 72 bf c2 98 10 bf ab 7e a0 be 7e 70 90 be
       -0.94907606 -0.5648309 -0.3134664 -0.28210825
000310 9b bd 89 bf 39 f9 44 bf 49 96 70 bf 96 91 9e be
       -1.0760988 -0.76942784 -0.93979317 -0.30970448
000320 5a 21 9a be 19 01 b1 be 7f 8c 23 bf 66 cd 0f bf
       -0.3010357 -0.3457115 -0.63886255 -0.5617279
000330 da 28 a3 bf e6 12 e7 be c7 f3 90 bf cf 91 42 c0
       -1.2746842 -0.45131606 -1.1324395 -3.0401495
000340 91 2f 45 bf 7e cc f6 be a1 79 d0 be 94 e7 1d bf
       -0.77025706 -0.4820289 -0.40717795 -0.61681485
000350 68 c3 2d bf f5 c6 ae be a2 3b 37 be 13 e1 de be
       -0.6787629 -0.34136167 -0.17893842 -0.43531093
000360 1a a1 42 bf 48 79 fe be 62 80 ce be c1 8e d3 be
       -0.7602707 -0.49701905 -0.40332323 -0.4131985
000370 e3 1a a5 be cc 1b 17 bf 7c 3f 22 bf aa 6b 9b 3f
       -0.32247075 -0.5902679 -0.6337812 1.2142231
000380 aa 39 52 bf 55 cc ee be 69 f5 76 bf 83 6a 64 bf
       -0.8211924 -0.46640268 -0.96468216 -0.89225024
000390 1a f9 89 bf 38 a8 bd be 4f b3 e2 be 19 f3 a1 bf
       -1.0779145 -0.37042403 -0.44277427 -1.2652313
0003a0 4a 83 ce be 4a 72 87 bf bf 5c 0b bf f6 e8 dd be
       -0.4033454 -1.0581753 -0.54438394 -0.43341798
0003b0 00 3f a5 bf 0f b6 07 bf 17 89 2a bf c5 09 10 bf
       -1.2909851 -0.53012174 -0.6661543 -0.5626491
0003c0 1d ff 76 be 49 63 62 bf d9 ba ab be e3 ed 95 be
       -0.24120755 -0.8843275 -0.3354099 -0.29283056
0003d0 1c 48 f5 be 00 62 88 bf 90 6c 6d be 48 7e 6b bf
       -0.47906578 -1.0654907 -0.23185945 -0.91989565
0003e0 a7 c6 b6 bf c8 76 98 bf b3 72 a3 bf df ff da be
       -1.4279374 -1.1911249 -1.2769378 -0.4277334
0003f0 d4 94 fd be 8d 46 10 bf 63 3c 87 bf 0b a8 01 bf
       -0.4952761 -0.5635765 -1.0565304 -0.5064704

bias f4 [200]
000000 7a 72 51 bf 1b 66 80 bf fa f1 0e 3f a7 55 0b bf
       -0.818153 -1.003116 0.55837977 -0.5442757
000010 c1 72 9c bf 40 38 99 bf 3f b5 9b bf 6d ba 65 bf
       -1.222252 -1.1970291 -1.2164687 -0.8973759
000020 6e a5 87 bf 4d 2c 0c 40 dd ef 8b bf be 80 10 bf
       -1.059736 2.190204 -1.0932575 -0.56446445
000030 dd 1c 3a be 4e e8 4d bf fb 90 95 3f de 83 56 bf
       -0.18175073 -0.80432594 1.168487 -0.83794963
000040 35 db 29 3d 81 33 89 3e 24 40 ad bf 1f 5c 96 3f
       0.041468818 0.26797107 -1.3535199 1.1746863
000050 80 c2 1b 40 f8 12 6e bf 92 82 c2 bd 43 65 13 be
       2.4337463 -0.92997694 -0.094975606 -0.14394097
000060 58 5c 85 bf c0 70 12 3e 01 4f 92 bf 01 53 7a bf
       -1.0418806 0.14300823 -1.143036 -0.97782904
000070 e9 41 a8 bd b4 d4 c8 3f f2 41 36 bf 41 b6 88 bf
       -0.08215696 1.5689912 -0.71194375 -1.068062
000080 6f 2c 61 bf ed 72 55 bf 19 87 2a 3d 3d 59 96 bf
       -0.87958425 -0.8337849 0.041632745 -1.1745983
000090 97 26 54 bf 03 c8 7a bf e6 81 96 bf 79 ae 88 be
       -0.82871383 -0.97961444 -1.1758392 -0.26695612
0000a0 15 06 1a be 15 0a 84 bf 2f 71 80 bf 11 67 83 bf
       -0.15041383 -1.0315577 -1.0034541 -1.0265828
0000b0 d2 45 7b 3e bd 43 02 bf ef 73 a0 bf 68 82 92 bf
       0.24538353 -0.5088461 -1.253538 -1.1446047
0000c0 b6 e7 70 bf 2a aa ed be a2 34 b3 3f 51 94 3a bf
       -0.9410356 -0.46418887 1.4000437 -0.7288256
0000d0 af 67 ac bf 23 a6 9a bf e3 cd df 3f 13 94 98 bf
       -1.3469142 -1.2081951 1.7484707 -1.1920189
0000e0 2a 6d 90 bf 53 2d 9d bf f6 e9 89 bf fb e6 95 bf
       -1.1283314 -1.2279457 -1.0774524 -1.1711115
0000f0 18 68 02 be a7 38 83 bf 4f 3f 99 bf 53 40 84 bf
       -0.12735021 -1.0251664 -1.1972445 -1.033213
000100 bd 1a 7d bf 9a 86 17 3f c7 79 57 3f e4 4c 86 bf
       -0.98868924 0.5918976 0.8417019 -1.0492215
000110 3a 20 df be 2e b2 8c bf 18 54 81 bf 22 41 a6 bf
       -0.43579274 -1.0991876 -1.0103788 -1.2988627
000120 31 77 61 3f f1 c0 a8 bf d0 b2 82 bf 13 d4 8e bf
       0.88072497 -1.3183881 -1.0210819 -1.115847
000130 af b4 56 bf f7 56 9d 3e 4e 33 85 bf 18 dc 86 bf
       -0.8386945 0.3073041 -1.0406282 -1.0535917
000140 da c5 5e bf 31 8e 60 bf 61 7b 6b bf 0c 1e a6 bf
       -0.8702065 -0.87716967 -0.91985136 -1.297792
000150 b3 fd 8f bf b9 2d bd 3e b0 ef 5f 3e 52 9e af be
       -1.1249298 0.36948946 0.21868777 -0.34300476
000160 9c 77 4c 3f 2a bb b9 3a 78 bb 97 bf b4 ec 9f bf
       0.7987001 0.0014170159 -1.1854086 -1.2494111
000170 8f c7 d0 3e ca e6 9f bf 40 b3 60 bf 24 77 39 bf
       0.4077725 -1.2492306 -0.87773514 -0.7244742
000180 b3 5c 96 bf 98 36 76 bf 76 64 cd be de 83 e5 bd
       -1.174704 -0.96177053 -0.40115708 -0.11206792
000190 8f 74 84 bf 68 4d 9a bf ee b9 ae 3e 51 38 aa bf
       -1.0348071 -1.2054873 0.34126228 -1.3298436
0001a0 c7 3b 5d bf 20 27 61 bf f7 f9 03 bf 00 a0 a0 bf
       -0.8641934 -0.87950325 -0.5155329 -1.2548828
0001b0 44 af c0 3f c9 01 1b bf 4d 67 7c bf 55 5b 60 bf
       1.5053487 -0.605496 -0.98595124 -0.8763936
0001c0 f2 9e 6b bf 2a ec 83 bf 37 d2 57 bf 42 a9 86 bf
       -0.92039406 -1.0306447 -0.8430514 -1.0520403
0001d0 e3 9a 5c bf 2e af 8d bf c5 a7 e4 3d 81 fa 6d bd
       -0.8617384 -1.1069086 0.11164812 -0.058100227
0001e0 38 35 87 bf 4e 08 5c 3f 76 a3 63 bf db 97 55 3d
       -1.0563116 0.8595017 -0.88921297 0.052146774
0001f0 23 eb 69 bf cb 19 1a 3e 4c d0 58 bf c1 70 54 bf
       -0.91374415 0.15048902 -0.84692836 -0.8298455
000200 1a a2 63 be 09 52 f6 bd a9 eb 5b bf 26 6a 98 bf
       -0.22229806 -0.12027366 -0.85906464 -1.1907394
000210 81 6b 81 bf 9f 30 7c 3f 55 39 a0 bf 1e 58 65 bf
       -1.0110933 0.9851169 -1.2517496 -0.8958758
000220 90 3e ee be 86 a4 f3 bd be 8c 63 bf 99 39 86 bf
       -0.46532106 -0.11896615 -0.8888663 -1.0486327
000230 42 4f 67 3e a5 48 31 bf 50 f9 9a bf 12 bc 00 bf
       0.22588828 -0.6925147 -1.2107334 -0.5028697
000240 83 9b a6 3f fc 2d 71 bd 19 76 9c bf eb ad 5e bf
       1.3016208 -0.058881745 -1.222354 -0.8698413
000250 84 1c a0 bf 68 19 a6 bf e9 1a 52 bf cb b4 8a bf
       -1.2508702 -1.2976503 -0.8207231 -1.0836424
000260 3f f4 85 bf 1e a2 74 bf b4 a7 91 bf 44 2f 9c bf
       -1.0465163 -0.9555987 -1.1379304 -1.2201924
000270 34 fb 83 bf 02 2f 92 bf 93 62 8c bf f5 40 d5 be
       -1.0311036 -1.1420596 -1.0967582 -0.4165112
000280 c5 46 86 bf 4d c5 5d bf 17 8a 81 be 49 28 76 bd
       -1.0490347 -0.8662918 -0.25300667 -0.060097013
000290 2d d0 7e bf 75 39 8d bf 5b 6c 15 bf aa b9 7b bf
       -0.995364 -1.103316 -0.5836846 -0.98330176
0002a0 f9 f1 97 bf 9f 71 69 3e 60 0c 7d bf c2 3f 6f bf
       -1.1870719 0.2279725 -0.9884701 -0.9345666
0002b0 a2 f7 92 bf d8 01 97 bf c4 55 52 3e ba 06 30 bf
       -1.1481822 -1.1797438 0.2054053 -0.68760264
0002c0 1f 50 82 bf b7 7a d5 be 51 94 c4 3e 5a d0 00 bf
       -1.0180701 -0.41695186 0.38394406 -0.5031792
0002d0 05 83 86 bf 35 0a f5 be 38 52 5a be 1b 1e da be
       -1.0508734 -0.4785935 -0.21320426 -0.42601094
0002e0 9a f4 1d bf ea 9e a0 bf 71 dd a7 be fa 06 7b bf
       -0.6170136 -1.2548497 -0.32786134 -0.9805752
0002f0 ac 33 5c bf 7c dc 7e bf 3c 67 e1 3f 70 3a 8f be
       -0.86016345 -0.9955518 1.760963 -0.27974272
000300 b7 e1 52 bf 9c 22 7a bf 32 fa 71 bf 6a b1 ad bf
       -0.82375664 -0.9770906 -0.9452239 -1.3569767
000310 d5 c8 71 bf 53 a3 8f bf d0 55 81 bf f3 69 10 bf
       -0.9444707 -1.1221718 -1.0104313 -0.56411666
